quant_prediction/best_model_0.pth (torch, 871586 bytes, 24 tensors)

time_weights f4 [24]
0	0x3a9755c2	0.0011545944
1	0x3b2d230d	0.0026418597
2	0x3b68de78	0.0035532992
3	0x3b85a454	0.0040784273
4	0x3b73ba1f	0.0037189794
5	0x3b7bf569	0.0038445836
6	0x3b66df0b	0.0035228159
7	0x3b1b0856	0.0023656092
8	0x3b3d7fbc	0.0028915247
9	0x3b3db39f	0.0028946174
10	0x3b5513d2	0.0032513035
11	0x3b718369	0.0036852008
12	0x3b2b94ce	0.0026181224
13	0x3b3cbedd	0.0028800287
14	0x3b43170a	0.002976837
15	0x3b0cf83e	0.0021510269
16	0x3b491f13	0.0030688688
17	0x3b3e92bf	0.0029079167
18	0x3b4cd5da	0.0031255395
19	0xbb378494	-0.0028002607
20	0xba519fe2	-0.00079965417
21	0xbc8b1988	-0.016979948
22	0xbce933ab	-0.02846702
23	0xbd11a0da	-0.03555379

pos_enc f4 [24, 8]
0	0x00000000	0.0
1	0x3f800000	1.0
2	0x00000000	0.0
3	0x3f800000	1.0
4	0x00000000	0.0
5	0x3f800000	1.0
6	0x00000000	0.0
7	0x3f800000	1.0
8	0x3f576aa4	0.84147096
9	0x3f0a5141	0.54030234
10	0x3dcc7576	0.099833414
11	0x3f7eb898	0.9950042
12	0x3c23d657	0.009999833
13	0x3f7ffcb9	0.99995
14	0x3a83126d	0.0009999998
15	0x3f7ffff8	0.9999995
16	0x3f68c7b7	0.9092974
17	0xbed51133	-0.41614684
18	0x3e4b6ff8	0.19866931
19	0x3f7ae5a5	0.9800666
20	0x3ca3d43e	0.019998666
21	0x3f7ff2e5	0.9998
22	0x3b031268	0.0019999985
23	0x3f7fffdf	0.99999803
24	0x3e1081c3	0.14112
25	0xbf7d7026	-0.9899925
26	0x3e974e6c	0.2955202
27	0x3f7490ef	0.9553365
28	0x3cf5b91f	0.0299955
29	0x3f7fe283	0.99955004
30	0x3b449b92	0.0029999954
31	0x3f7fffb5	0.9999955
32	0xbf41bdcf	-0.7568025
33	0xbf275530	-0.6536436
34	0x3ec761d7	0.38941833
35	0x3f6bcaa7	0.921061
36	0x3d23cbdb	0.039989334
37	0x3f7fcb94	0.9992001
38	0x3b831257	0.003999989
39	0x3f7fff7a	0.999992
40	0xbf757c10	-0.9589243
41	0x3e913c2c	0.2836622
42	0x3ef57743	0.47942552
43	0x3f60a940	0.87758255
44	0x3d4cb6f4	0.049979165
45	0x3f7fae19	0.99875027
46	0x3ba3d6dd	0.004999979
47	0x3f7fff2e	0.9999875
48	0xbe8f0f8c	-0.2794155
49	0x3f75cdb8	0.96017027
50	0x3f108c68	0.5646424
51	0x3f534932	0.8253356
52	0x3d759cd1	0.059964005
53	0x3f7f8a12	0.99820054
54	0x3bc49b58	0.0059999637
55	0x3f7ffed2	0.999982
56	0x3f283046	0.6569866
57	0x3f40ffbd	0.75390226
58	0x3f24eb72	0.6442176
59	0x3f43ccb3	0.7648422
60	0x3d8f3e32	0.06994285
61	0x3f7f5f81	0.997551
62	0x3be55fc5	0.006999942
63	0x3f7ffe65	0.9999755
64	0x3f7d4695	0.98935825
65	0xbe14fdf6	-0.14550003
66	0x3f37a4a5	0.717356
67	0x3f325b5f	0.6967067
68	0x3da3aa50	0.07991469
69	0x3f7f2e65	0.9968017
70	0x3c031212	0.007999914
71	0x3f7ffde7	0.999968
72	0x3ed30132	0.4121185
73	0xbf693fd5	-0.91113025
74	0x3f48881c	0.78332686
75	0x3f1f21d5	0.62161
76	0x3db8123e	0.089878544
77	0x3f7ef6c2	0.9959527
78	0x3c13743a	0.008999879
79	0x3f7ffd59	0.9999595
80	0xbf0b44f8	-0.5440211
81	0xbf56cd64	-0.8390715
82	0x3f576aa4	0.84147096
83	0x3f0a5141	0.54030234
84	0x3dcc7576	0.099833414
85	0x3f7eb898	0.9950042
86	0x3c23d657	0.009999833
87	0x3f7ffcb9	0.99995
88	0xbf7fff5c	-0.9999902
89	0x3b910572	0.004425698
90	0x3f64262a	0.89120734
91	0x3ee83dc3	0.4535962
92	0x3de0d372	0.1097783
93	0x3f7e73e8	0.9939561
94	0x3c343869	0.010999777
95	0x3f7ffc09	0.9999395
96	0xbf095cd8	-0.53657293
97	0x3f5806d0	0.84385395
98	0x3f6e9a1d	0.9320391
99	0x3eb986f7	0.36235783
100	0x3df52bac	0.119712204
101	0x3f7e28b5	0.99280864
102	0x3c449a70	0.011999711
103	0x3f7ffb48	0.999928
104	0x3ed72022	0.42016703
105	0x3f684e6f	0.9074468
106	0x3f76abc0	0.9635582
107	0x3e88f59d	0.26749888
108	0x3e04bed0	0.12963414
109	0x3f7dd700	0.9915619
110	0x3c54fc6a	0.012999633
111	0x3f7ffa76	0.9999155
112	0x3f7d9872	0.9906074
113	0x3e0c04d7	0.13673721
114	0x3f7c466f	0.98544973
115	0x3e2e0be7	0.16996728
116	0x3e0ee464	0.13954312
117	0x3f7d7ecc	0.990216
118	0x3c655e55	0.013999541
119	0x3f7ff994	0.999902
120	0x3f267944	0.65028787
121	0xbf427ae8	-0.7596879
122	0x3f7f5bd5	0.997495
123	0x3d90deba	0.07073732
124	0x3e19064f	0.14943813
125	0x3f7d201a	0.9887711
126	0x3c75c032	0.014999436
127	0x3f7ff8a1	0.9998875
128	0xbe936810	-0.2879033
129	0xbf75292c	-0.9576595
130	0x3f7fe40e	0.9995736
131	0xbcef33a3	-0.029199427
132	0x3e232450	0.15931821
133	0x3f7cbaed	0.98722726
134	0x3c831100	0.015999317
135	0x3f7ff79d	0.999872
136	0xbf761e25	-0.96139747
137	0xbe8ce236	-0.27516335
138	0x3f7dddbf	0.9916648
139	0xbe03efcb	-0.12884443
140	0x3e2d3e23	0.16918235
141	0x3f7c4f49	0.9855848
142	0x3c8b41dd	0.01699918
143	0x3f7ff688	0.9998555
144	0xbf4040b3	-0.75098723
145	0x3f290a84	0.6603167
146	0x3f794e14	0.9738476
147	0xbe68a7a7	-0.22720204
148	0x3e375387	0.17902957
149	0x3f7bdd2e	0.9838437
150	0x3c9372b2	0.017999027
151	0x3f7ff562	0.999838
152	0x3e197969	0.1498772
153	0x3f7d1bbf	0.9887046
154	0x3f7240ba	0.94630015
155	0xbea58631	-0.32328942
156	0x3e41643a	0.1888589
157	0x3f7b64a1	0.9820042
158	0x3c9ba37d	0.018998856
159	0x3f7ff42c	0.9998195
160	0x3f69b6c8	0.9129453
161	0x3ed0f022	0.40808207
162	0x3f68c7b8	0.90929747
163	0xbed5112f	-0.41614673
164	0x3e4b6ff8	0.19866931
165	0x3f7ae5a5	0.9800666
166	0x3ca3d43e	0.019998666
167	0x3f7ff2e5	0.9998
168	0x3f562f10	0.8366556
169	0xbf0c37fc	-0.54772925
170	0x3f5cfb4b	0.8632094
171	0xbf013d97	-0.50484604
172	0x3e557683	0.2084599
173	0x3f7a603c	0.9780309
174	0x3cac04f3	0.020998454
175	0x3f7ff18d	0.9997795
176	0xbc110515	-0.008851309
177	0xbf7ffd6f	-0.99996084
178	0x3f4ef9a1	0.80849653
179	0xbf16a800	-0.588501
180	0x3e5f7796	0.21822962
181	0x3f79d46a	0.97589743
182	0x3cb4359e	0.021998223
183	0x3f7ff024	0.999758
184	0xbf58a1e6	-0.8462204
185	0xbf0867bf	-0.53283304
186	0x3f3ee68a	0.74570525
187	0xbf2a9110	-0.666276
188	0x3e6972f0	0.22797751
189	0x3f794234	0.9736664
190	0x3cbc663d	0.02299797
191	0x3f7feeab	0.99973553

cnn.0.weight f4 [64, 19, 3]
0	0x3a819339	0.0009885795
1	0x3a9133cd	0.001107806
2	0x3a57172e	0.0008205053
3	0x3a885f81	0.0010404439
4	0x3a235412	0.0006230484
5	0x3a89dd90	0.0010518301
6	0x3a068dc4	0.0005132819
7	0x3a85793e	0.0010183228
8	0x3ab52452	0.0013820028
9	0xba2284d4	-0.00061996025
10	0xb826cf93	-3.9770803e-05
11	0x3b0a14f8	0.0021069627
12	0x3c6f71d8	0.014614545
13	0x38fe09d4	0.000121134944
14	0x3c3b262f	0.011422678
15	0x0000ece5	8.4982e-41
16	0x004fb7d3	7.320948e-39
17	0x805371b8	-7.663141e-39
18	0x000b96a9	1.064237e-39
19	0x80714d70	-1.040519e-38
20	0x00600597	8.818213e-39
21	0x3a2e596c	0.0006650898
22	0x3a0ad086	0.00052953546
23	0x3af546ed	0.0018713154
24	0x3a05796d	0.0005091641
25	0x39f115ff	0.0004598349
26	0xba10fb56	-0.0005530616
27	0x3a13a96a	0.00056328496
28	0x3a284c94	0.00064201024
29	0xbb16f8c4	-0.002303646
30	0x39b656bc	0.00034778367
31	0x3a36c4e0	0.00069720857
32	0x3af3f98f	0.0018613803
33	0x3ac50178	0.0015030345
34	0x3aa4058d	0.0012513861
35	0x3baf7d7e	0.005355536
36	0x3adf3516	0.0017029371
37	0x3b46ffe9	0.0030364937
38	0x3b1d4b15	0.0024001051
39	0x3a190283	0.0005836861
40	0x3a5eca97	0.0008498816
41	0x3a5d8408	0.0008450155
42	0x8000fefd	-9.1473e-41
43	0x0040d31a	5.953201e-39
44	0x8048186a	-6.620914e-39
45	0x802cde7f	-4.120578e-39
46	0x80388556	-5.19062e-39
47	0x807166fa	-1.0414352e-38
48	0x3ae268ae	0.0017273629
49	0x3955553e	0.00020345018
50	0xb947b49a	-0.00019045398
51	0x3a305016	0.0006725801
52	0x3a071127	0.0005152397
53	0x3a86d957	0.0010288161
54	0x3be0be7e	0.006858646
55	0x3cadb709	0.021205442
56	0x3d078427	0.033085015
57	0xba5c48e2	-0.00084031944
58	0xb9fc8817	-0.0004816658
59	0xb96dfd7e	-0.00022696514
60	0xba59ec4c	-0.0008313104
61	0xbaa4f81d	-0.001258615
62	0x380b1f36	3.316925e-05
63	0xba87f1bd	-0.0010371726
64	0xba3f4507	-0.00072963577
65	0xb8af0de4	-8.3472376e-05
66	0x39cd5be2	0.00039169105
67	0x39865ae8	0.00025626202
68	0xbc31b42f	-0.010846182
69	0xbcf8b80f	-0.030361203
70	0x3cf83efc	0.03030347
71	0x3973efcb	0.00023263616
72	0x8064d888	-9.261226e-39
73	0x00506634	7.383503e-39
74	0x0006a75c	6.1105e-40
75	0x800f1cdc	-1.387885e-39
76	0x80589869	-8.136198e-39
77	0x80122624	-1.666721e-39
78	0xb968e703	-0.00022211303
79	0xb6433fb8	-2.9094354e-06
80	0xba6700c5	-0.00088120654
81	0xba321045	-0.00067925855
82	0xb9015b78	-0.00012336473
83	0xba276954	-0.00063862395
84	0xb8acd7bc	-8.241783e-05
85	0xb9efe4d8	-0.00045756134
86	0x3aa1817b	0.0012321913
87	0xbb2a7817	-0.002601152
88	0xba185e3b	-0.0005812381
89	0x3ac4e2c7	0.0015021198
90	0x3bd75c98	0.0065723173
91	0xbb04650d	-0.0020201833
92	0x3b94c537	0.0045401114
93	0x3c441a31	0.011969135
94	0xbbe5ee9f	-0.0070169712
95	0xba750e77	-0.0009348164
96	0xb9b9f112	-0.0003546556
97	0xba8e46e9	-0.0010854873
98	0xb90d263e	-0.00013461054
99	0x004b86f1	6.93607e-39
100	0x0009a93c	8.8723e-40
101	0x00650cca	9.279973e-39
102	0x00418e31	6.020316e-39
103	0x0043b620	6.218312e-39
104	0x01b22348	6.54375e-38
105	0xbc16fdb3	-0.00921576
106	0xbc68cfe0	-0.0142097175
107	0xbb05aae6	-0.0020396053
108	0xba2a3d6c	-0.0006494138
109	0xba04ed03	-0.0005070718
110	0x39e99a54	0.00044556207
111	0x3c52c708	0.012864836
112	0x3ce5abad	0.028035963
113	0xbd6b01f4	-0.05737491
114	0xb94dda23	-0.00019631586
115	0xb9727f09	-0.00023126243
116	0xba056927	-0.0005089216
117	0xb9700fcd	-0.0002289407
118	0xb97f2061	-0.00024330757
119	0xba01b58a	-0.0004948011
120	0xb90b492d	-0.00013283333
121	0xb977f6c1	-0.00023647679
122	0xba0429ec	-0.0005041647
123	0x3834679b	4.3011834e-05
124	0x3922aaa1	0.00015513088
125	0xbbc49dc2	-0.0060002515
126	0xbc1f8cb4	-0.009738136
127	0xbc53e66e	-0.012933357
128	0x3cc7e4b2	0.024401043
129	0x804e5cb5	-7.196426e-39
130	0x002aa7eb	3.917328e-39
131	0x802f4d1b	-4.343929e-39
132	0x800c7e56	-1.147347e-39
133	0x001ed768	2.832338e-39
134	0x807e4a74	-1.1597981e-38
135	0xb93f511c	-0.00018245395
136	0xb98263de	-0.0002486994
137	0xba34fad5	-0.0006903832
138	0xb897aed2	-7.232804e-05
139	0xb942b10a	-0.00018567234
140	0x379bb01c	1.8559447e-05
141	0xb9564908	-0.00020435837
142	0xb8f75093	-0.00011792886
143	0xba0a8989	-0.00052847766
144	0xbad1d180	-0.001600787
145	0xbaa15318	-0.0012308089
146	0xbaa59bf7	-0.0012634982
147	0x3adf544b	0.0017038671
148	0x3b0c9f4b	0.002145725
149	0xbb36809c	-0.0027847653
150	0xba8d73b1	-0.0010791925
151	0xbb92b4b8	-0.0044771098
152	0xbaf1c1e5	-0.0018444626
153	0xb9617572	-0.00021501424
154	0xb8ce7d9f	-9.846244e-05
155	0xba01fb1c	-0.00049583777
156	0x8087423b	-1.2421551e-38
157	0x8089c6d3	-1.2652788e-38
158	0x004bb32f	6.951941e-39
159	0x003c6c22	5.54892e-39
160	0x0006e12c	6.3179e-40
161	0x806ce314	-9.999694e-39
162	0xbad50d8d	-0.0016254649
163	0xbc069035	-0.008213093
164	0xbad2498f	-0.0016043651
165	0xb97de015	-0.00024211437
166	0xb99d6275	-0.0003001873
167	0xba22582c	-0.0006192948
168	0x3c346e62	0.011012645
169	0xbcc7121c	-0.024300627
170	0xbd05a35c	-0.032626495
171	0x3a44e477	0.00075108506
172	0x3a470b47	0.0007592928
173	0x39e5f3d3	0.00043859947
174	0x3a448fac	0.00074982154
175	0x3a4a528e	0.000771799
176	0x39e13700	0.00042956322
177	0x3a4c27fe	0.0007787942
178	0x3a492fdd	0.00076746737
179	0x39e411a1	0.00043500683
180	0xb9f1e49e	-0.00046137435
181	0xba0f0741	-0.0005456098
182	0xb9133ef0	-0.00014042458
183	0xbb71ec7f	-0.0036914644
184	0x3ad28150	0.0016060267
185	0x398ba247	0.00026633052
186	0x807b744e	-1.1337488e-38
187	0x802354e4	-3.244695e-39
188	0x001ad884	2.465394e-39
189	0x8013693c	-1.782625e-39
190	0x8059b247	-8.237313e-39
191	0x00693201	9.660665e-39
192	0x3a3b3d52	0.00071426213
193	0x3a3634eb	0.00069506344
194	0x39bcb3f9	0.00035992244
195	0x3a3b47ed	0.00071442017
196	0x3a3773aa	0.0006998131
197	0x39b2f2c5	0.00034131683
198	0x3a3c67ea	0.0007187115
199	0x3a37d1f2	0.000701218
200	0x39a9633b	0.00032308124
201	0xb9d17d2c	-0.00039956847
202	0x39d0e8ba	0.00039846246
203	0x39866f9d	0.0002564163
204	0x3a3c8855	0.0007191946
205	0x39c9c743	0.0003848617
206	0x3a4b1446	0.00077468564
207	0x3986b8ac	0.00025696063
208	0x3a3f99d2	0.0007308993
209	0x3a698841	0.0008908548
210	0x3a452f9b	0.00075220474
211	0x3a4a7655	0.00077233213
212	0x39df93f5	0.0004264411
213	0x800d9b51	-1.249578e-39
214	0x806a888c	-9.783546e-39
215	0x8046c5a5	-6.499386e-39
216	0x80690467	-9.644306e-39
217	0x0004b586	4.3246e-40
218	0x006d65af	1.0046546e-38
219	0x38c22935	9.258316e-05
220	0xb7931e70	-1.753794e-05
221	0x3ac3a38c	0.001492606
222	0x3a3fa742	0.0007310995
223	0x3a3c5820	0.00071847625
224	0x3a0658a0	0.00051249005
225	0x3cb7e784	0.022449262
226	0x3c6646c5	0.014054959
227	0x3bbdb16f	0.005788974
228	0xb959d432	-0.00020773782
229	0xb984a5c5	-0.0002530051
230	0xba877c0d	-0.0010336653
231	0xb86f6ec3	-5.7085195e-05
232	0xb888188f	-6.48956e-05
233	0xba194712	-0.0005847077
234	0xb8ec0677	-0.00011254561
235	0xb91c4314	-0.00014902308
236	0xba5fca75	-0.00085369434
237	0x39a066a5	0.00030594054
238	0x39ca1f05	0.00038551554
239	0x3a19050f	0.00058372406
240	0x3c33ff8d	0.010986221
241	0xbc23c2a8	-0.00999514
242	0xbaaf1202	-0.0013356807
243	0x0023305b	3.231589e-39
244	0x8018869e	-2.252343e-39
245	0x001306e0	1.747341e-39
246	0x0024ca17	3.378574e-39
247	0x808509d4	-1.2217647e-38
248	0x008e1380	1.3047636e-38
249	0xb90c5456	-0.00013382858
250	0xb9634b2f	-0.00021676415
251	0xba84ca72	-0.0010131134
252	0xb9278c94	-0.0001597873
253	0xb94ddc69	-0.00019632433
254	0xba3965a8	-0.0007072338
255	0xb9409ab2	-0.00018368175

cnn.0.bias f4 [64]
0	0xbc1cc3ba	-0.009568149
1	0x3c501cb9	0.0127021605
2	0x3cc42ac5	0.023946175
3	0xbba95476	-0.005167539
4	0x3cc8ac11	0.02449611
5	0xbb23c30a	-0.0024988079
6	0x3c39223f	0.011299669
7	0x3b3ea626	0.0029090731
8	0x38ef4b08	0.00011410384
9	0xbbe146dc	-0.006874902
10	0x3b9f5293	0.0048621385
11	0xbbce510c	-0.0062962826
12	0xbc00554d	-0.007832837
13	0xbb26d0a6	-0.0025453954
14	0xbbc0e3d1	-0.005886533
15	0xbb603320	-0.003421016
16	0xbc9d6ed7	-0.019217892
17	0x3b9f4430	0.0048604235
18	0xbb7f258e	-0.0038932296
19	0xbd2b8d11	-0.04188258
20	0x3d0417e7	0.032249358
21	0x3c1c3b2d	0.009535593
22	0xbb2e68b1	-0.0026612694
23	0xbb199e56	-0.0023440323
24	0x3cc9faa6	0.024655651
25	0xbcfdfacd	-0.03100338
26	0x3cd68cb8	0.026190147
27	0xbcaad339	-0.020852672
28	0x3c2bf1ef	0.010494693
29	0xbced0ab9	-0.028935777
30	0xbbcaa3d7	-0.006184082
31	0xbcabb567	-0.020960523
32	0xbc9c7775	-0.01909993
33	0xbd49d8b3	-0.049278926
34	0x3ceb3dbe	0.028715964
35	0x3afc6579	0.0019256315
36	0x3aec477a	0.0018026673
37	0x3b795ca7	0.003804961
38	0x3ba159d5	0.004924039
39	0x3ba9227a	0.0051615806
40	0xbc9b2359	-0.018937754
41	0xbae28baf	-0.0017284061
42	0x3ca88d4f	0.020575194
43	0x3c8ae75a	0.01695602
44	0xbc9a66e0	-0.018847883
45	0xbb088044	-0.0020828405
46	0x3c7d35dd	0.015454737
47	0x3c14dcdb	0.009085859
48	0xbb91824a	-0.0044405805
49	0xbc8161f9	-0.015793787
50	0xbcbac78d	-0.022800231
51	0xbd2872a4	-0.041124955
52	0xbc8475cb	-0.01616945
53	0x3bdae2d2	0.006679871
54	0x3ad4b192	0.0016227236
55	0xbc54c4b4	-0.012986351
56	0x3c1e0765	0.009645318
57	0xbbe6470c	-0.0070275124
58	0x3c774a8f	0.01509346
59	0xbb29093d	-0.002579286
60	0xbd297a06	-0.041376136
61	0xbd1e2483	-0.03860904
62	0x3bbe6595	0.0058104494
63	0xbb206f9b	-0.0024480585

cnn.2.weight f4 [64]
0	0x3dc0157a	0.09379096
1	0x3d6f087f	0.058357712
2	0x3d5f995c	0.054589614
3	0x3d5abeb4	0.053404525
4	0x3d7f4a2b	0.06232659
5	0x3d33fa96	0.04394015
6	0x3d9507b4	0.0727686
7	0x3d7708c5	0.060311098
8	0x3d83e65a	0.064404204
9	0x3dd0a013	0.10186782
10	0x3d5e4f50	0.054274857
11	0x3cf7bc9c	0.030241303
12	0x3e00c870	0.12576461
13	0x3d0e0d0f	0.034680422
14	0x3d248597	0.040166464
15	0x3cebbc46	0.0287763
16	0x3d9db134	0.076998144
17	0x3d84699e	0.064654574
18	0x3d3806db	0.044928413
19	0x3d4f2672	0.050573774
20	0x3dc46e1d	0.09591315
21	0x3d2cc11f	0.042176362
22	0x3d114524	0.03546633
23	0x3d8caa15	0.06868378
24	0x3d84923a	0.06473203
25	0x3e046915	0.1293071
26	0x3da96a8c	0.08272275
27	0x3d708cbd	0.05872797
28	0x3dce1af9	0.100637384
29	0x3da57ac3	0.080800556
30	0x3d8188fa	0.06324954
31	0x3d956128	0.07293922
32	0x3d1bf8ca	0.03807906
33	0x3d3a8c45	0.045543928
34	0x3dc3b42f	0.09555852
35	0x3cfbaf24	0.030723162
36	0x3da7847c	0.08179566
37	0x3d46119e	0.048356645
38	0x3d35ae8f	0.044355925
39	0x3d2d4243	0.04229952
40	0x3db41d73	0.087946795
41	0x3d32c7f1	0.04364771
42	0x3d965609	0.07340629
43	0x3da39f24	0.07989338
44	0x3d5f32c2	0.054491766
45	0x3d383b1f	0.044978257
46	0x3da68ba9	0.08132107
47	0x3d4fc5a1	0.050725583
48	0x3d7fd5d6	0.06245979
49	0x3d533489	0.051563773
50	0x3d5f0017	0.054443445
51	0x3d32c788	0.04364732
52	0x3d5a8488	0.053349048
53	0x3da4034d	0.08008442
54	0x3d30bb7d	0.043147553
55	0x3d92cc14	0.07167831
56	0x3d5fc142	0.054627664
57	0x3d2c9269	0.042131815
58	0x3d2a568c	0.041586444
59	0x3d0cb21f	0.034349557
60	0x3d92407d	0.071412064
61	0x3cd577ed	0.026058162
62	0x3d494314	0.049136236
63	0x3d498fd3	0.049209427

cnn.2.bias f4 [64]
0	0xbb65f5e2	-0.0035089185
1	0xba68a44b	-0.0008874579
2	0x3b5faaef	0.0034128984
3	0x39d13716	0.0003990463
4	0x3b654759	0.0034985153
5	0xbad50370	-0.0016251635
6	0xba98175b	-0.001160364
7	0xbafb1bce	-0.0019158067
8	0xbb324705	-0.0027202975
9	0x3aa9a0f3	0.0012941643
10	0x3b4d760e	0.0031350884
11	0x3a675613	0.0008824777
12	0xba98925b	-0.0011640297
13	0x3a6f2ca1	0.00091237767
14	0x39d73f16	0.00041054998
15	0xbac62391	-0.0015116801
16	0x3a6437fd	0.00087058527
17	0xbb184b93	-0.0023238405
18	0x3aa643ce	0.0012685002
19	0x3b27652c	0.002554248
20	0x3b77ce86	0.0037812307
21	0x3a48736a	0.00076465926
22	0xbaca918f	-0.0015454757
23	0xb89b818f	-7.415108e-05
24	0x3b54345e	0.0032379846
25	0x3add5352	0.0016885793
26	0x3b508ad2	0.0031821025
27	0xb9c28f77	-0.00037109453
28	0xbb155b05	-0.0022789848
29	0xbae51ee4	-0.001748052
30	0x3b17df69	0.0023173934
31	0xbae236bb	-0.0017258743
32	0x3a16b69c	0.0005749257
33	0x37d9c658	2.5960777e-05
34	0x3b4cba4b	0.003123897
35	0xb96a0ff4	-0.00022321922
36	0xbaf7d99c	-0.0018909457
37	0xbac984e8	-0.0015374692
38	0x3ab6ba7e	0.0013941077
39	0xb9e706f7	-0.00044064943
40	0x3a99a408	0.0011721859
41	0x3aec45fe	0.001802623
42	0x3ab272e5	0.0013614564
43	0x3a8a9bf5	0.0010575043
44	0x3b330caa	0.002732078
45	0x39ebaae9	0.0004495003
46	0x38033273	3.127982e-05
47	0x3a9206f3	0.0011140987
48	0x399354b2	0.00028101128
49	0xba3e242a	-0.00072533137
50	0xb9bff70d	-0.00036614426
51	0x3a518e07	0.0007993881
52	0x39217848	0.00015398965
53	0xba934208	-0.0011234889
54	0x3a2290ef	0.00062014064
55	0x3ae1a3b9	0.0017214931
56	0x36e1e9ac	6.7327255e-06
57	0x3b0bbf3d	0.0021323704
58	0xba814969	-0.0009863797
59	0x3a542652	0.00080928684
60	0x3a3a3193	0.0007102724
61	0xb910d4d4	-0.00013812195
62	0xbb463cd2	-0.0030248654
63	0xba88fccc	-0.0010451316

cnn.2.running_mean f4 [64]
0	0x3b3a0ce1	0.0028389024
1	0x3c444af7	0.011980764
2	0x3c9a33b1	0.018823477
3	0x3b0659d5	0.0020500321
4	0x3c9358c2	0.017986659
5	0xba8deb74	-0.0010827617
6	0x3c5ba61a	0.013406301
7	0x3c193fed	0.00935362
8	0x3b824997	0.0039760577
9	0xbb39364c	-0.0028261123
10	0x3b234274	0.0024911435
11	0xbab263ee	-0.0013610104
12	0x3b7c1e60	0.0038470253
13	0xba8c2ccd	-0.0010694504
14	0xbaadd0f7	-0.0013261129
15	0x3b3c7e35	0.0028761749
16	0xbb707478	-0.0036690515
17	0x3bd822c8	0.006595943
18	0xbad63590	-0.0016342867
19	0xbc03b900	-0.008039713
20	0x3cccc97c	0.024998419
21	0x3bcf14bb	0.00631961
22	0x3a986d8f	0.0011629331
23	0xbaeeee31	-0.0018228946
24	0x3cb8e513	0.022570169
25	0xbbbd7960	-0.0057822913
26	0x3ca5882e	0.020206537
27	0xbba25b3f	-0.004954725
28	0x3c7faa8c	0.015604626
29	0xbbacd9e1	-0.0052749966
30	0xbab5bd70	-0.0013865661
31	0xbaccf028	-0.0015635537
32	0xbb8a2a02	-0.0042164335
33	0xbc102fb8	-0.00880044
34	0x3cc7f30d	0.024407888
35	0x3bb4b3ba	0.005514589
36	0x3bf473e1	0.007460103
37	0x3c08217e	0.008308766
38	0x3c10fab9	0.008848839
39	0x3b062c18	0.002047306
40	0xbb5a194e	-0.0033279243
41	0xbabbe1f2	-0.0014334305
42	0x3c965fc3	0.01835621
43	0x3c53505c	0.012897577
44	0xbb5e4dbe	-0.003392085
45	0xba86d53e	-0.001028694
46	0x3c955ed8	0.018233702
47	0x3c30028e	0.010742797
48	0xbb05a5c8	-0.0020393003
49	0xbaacf0dd	-0.0013194341
50	0xbbadbb90	-0.0053019
51	0xbc014698	-0.007890366
52	0xbb625209	-0.003453376
53	0x3bee766c	0.0072773006
54	0x3b38ae8c	0.002818021
55	0xbb684035	-0.003543866
56	0x3c466639	0.012109333
57	0xbb153b93	-0.0022771105
58	0x3c7e86a1	0.015535028
59	0xbaa7160d	-0.001274766
60	0xbbe4b940	-0.0069800913
61	0xbbe0a2b7	-0.0068553346
62	0x3c668b89	0.014071354
63	0x3b3f3c21	0.0029180127

cnn.2.running_var f4 [64]
0	0x38579165	5.1395404e-05
1	0x38a3359c	7.782431e-05
2	0x38933f26	7.0212685e-05
3	0x37b99758	2.2124193e-05
4	0x38943c13	7.06838e-05
5	0x34f1060f	4.4894156e-07
6	0x381be54d	3.7168433e-05
7	0x38778322	5.9011516e-05
8	0x382a1b03	4.0556315e-05
9	0x3653cf0f	3.1561974e-06
10	0x37480899	1.1922931e-05
11	0x36085ef5	2.0320851e-06
12	0x3891c125	6.950115e-05
13	0x350fc3c7	5.3556545e-07
14	0x36872153	4.027193e-06
15	0x384ed61a	4.9313625e-05
16	0x3575667e	9.141876e-07
17	0x38190ef8	3.6491983e-05
18	0x35877318	1.009178e-06
19	0x36ad432b	5.163621e-06
20	0x38c2c155	9.286652e-05
21	0x37b9708a	2.2106124e-05
22	0x3724a221	9.81291e-06
23	0x3645eb8a	2.949239e-06
24	0x38b9af21	8.854108e-05
25	0x369bc9c9	4.642851e-06
26	0x385ffddf	5.340378e-05
27	0x366e1390	3.547615e-06
28	0x38a5b347	7.901206e-05
29	0x360cf79e	2.1005758e-06
30	0x35474ba1	7.424333e-07
31	0x37b25ca0	2.1262385e-05
32	0x361766c3	2.2560569e-06
33	0x37094815	8.182619e-06
34	0x3876d795	5.8851747e-05
35	0x384a44a4	4.822448e-05
36	0x3866c916	5.502355e-05
37	0x3816a5ab	3.5917077e-05
38	0x3877a662	5.9044345e-05
39	0x3772e9d5	1.4478767e-05
40	0x3685013e	3.9638535e-06
41	0x35fabd38	1.8681521e-06
42	0x37d6dbe9	2.5613192e-05
43	0x38052352	3.1742566e-05
44	0x36f5e134	7.327786e-06
45	0x352287c0	6.0547245e-07
46	0x389555f0	7.120881e-05
47	0x388f6a25	6.838542e-05
48	0x360d66fd	2.1070584e-06
49	0x374393fd	1.1657362e-05
50	0x35e51de9	1.7070535e-06
51	0x35c6618a	1.4780537e-06
52	0x35dc10fb	1.6396219e-06
53	0x382cccc2	4.119869e-05
54	0x37e7bb0c	2.7624446e-05
55	0x36825452	3.884118e-06
56	0x389f4eec	7.596411e-05
57	0x359e5e4f	1.1799365e-06
58	0x38c3e1e6	9.3404014e-05
59	0x35a311c9	1.2149623e-06
60	0x36f5f84b	7.330474e-06
61	0x366c1f02	3.518479e-06
62	0x38fa5e9a	0.0001193855
63	0x381201be	3.4810735e-05

cnn.3.weight f4 [64, 64, 3]
0	0x3b4442e9	0.0029947108
1	0x3b9292bd	0.004473059
2	0x3ab366e4	0.001368728
3	0x3aeb9828	0.0017974423
4	0xbac134c1	-0.0014740453
5	0x3a614a8a	0.0008594176
6	0xbb2d097e	-0.0026403363
7	0x39c43d9c	0.00037429936
8	0x3875f387	5.8639354e-05
9	0x3b0e26d5	0.0021690626
10	0x3c18da44	0.009329382
11	0xb9974025	-0.00028848756
12	0xbb8af537	-0.0042406577
13	0x3b8dbb77	0.004325326
14	0x3a1eeeb7	0.0006062793
15	0xba15ca78	-0.0005714069
16	0xbb706403	-0.0036680705
17	0x38bcc3d2	9.001013e-05
18	0x3b0c40a9	0.0021400845
19	0xbc58bbec	-0.013228398
20	0xbb1cbcb0	-0.0023916177
21	0x3b7d1ac6	0.0038620695
22	0xbbbd45cf	-0.005776144
23	0x3981a83b	0.0002473014
24	0x3bc3bfdb	0.0059737987
25	0x3b177d21	0.0023115354
26	0x3b2e308d	0.0026579231
27	0xbb23d91e	-0.0025001238
28	0xbb5bc15a	-0.0033531995
29	0xb8981c46	-7.253191e-05
30	0x3b1559e1	0.0022789168
31	0xbb966544	-0.0045897085
32	0x35b35e50	1.3363988e-06
33	0xba6593eb	-0.0008757698
34	0xbbf91745	-0.007601651
35	0xba946d47	-0.0011324071
36	0x3c30a76f	0.010782107
37	0x3c4abea2	0.012374552
38	0x3accd1ab	0.0015626451
39	0xba2dfe23	-0.00066372956
40	0xbb08f4c3	-0.0020897842
41	0xb920f789	-0.00015351003
42	0xbb40496d	-0.002934064
43	0xbaf85260	-0.0018945448
44	0xbac96734	-0.001536584
45	0xba80b4d2	-0.0009819514
46	0x3a89b525	0.0010506256
47	0xba193923	-0.0005845001
48	0xbae7ff9d	-0.001770008
49	0x3b326b8c	0.0027224747
50	0x3a34b2fc	0.0006893126
51	0x39ecf724	0.00045197562
52	0x3bf9b71d	0.0076207058
53	0x39424380	0.00018526427
54	0x3ae0ff23	0.001716588
55	0xbbb0a8b6	-0.0053912057
56	0x39d582c6	0.0004072396
57	0x39f6cc80	0.0004707314
58	0xbb2fbaea	-0.002681429
59	0x3a2f150f	0.0006678858
60	0xbbe2db2c	-0.0069231
61	0xb98b85be	-0.00026611792
62	0xba04ca3a	-0.00050655345
63	0x39b1a3b0	0.00033882027
64	0x3b89d6c1	0.004206509
65	0x3a7bba27	0.0009602629
66	0x3ae406c1	0.0017397032
67	0xbb30556a	-0.002690638
68	0xba586250	-0.0008254396
69	0xba9e504f	-0.0012078377
70	0x3b1af9dd	0.0023647465
71	0xb95dac81	-0.00021140465
72	0xbb3b093f	-0.0028539447
73	0x3799588c	1.8280254e-05
74	0xbac7f81e	-0.001525644
75	0xbc04cf37	-0.0081060445
76	0xbbb316b9	-0.0054653552
77	0xbadce703	-0.0016853515
78	0xbb4b22c5	-0.0030996066
79	0x3b86a36f	0.0041088383
80	0xb82c8492	-4.113146e-05
81	0xba61137d	-0.0008585973
82	0xba941560	-0.0011297874
83	0xba86d2ca	-0.0010286209
84	0x3c6de2ce	0.0145194065
85	0xbb213920	-0.00246007
86	0x3ac6eab3	0.0015176147
87	0x39e8c3d0	0.0004439638
88	0x3ab135dd	0.0013520081
89	0xbaa6b3dc	-0.0012718397
90	0xbb36fa38	-0.0027920138
91	0xbb235595	-0.0024922837
92	0xb99a913d	-0.0002948138
93	0x3c0c12a1	0.008549363
94	0x3a31ec96	0.0006787268
95	0xb85423d0	-5.057809e-05
96	0x3b0f87a1	0.002190091
97	0x3b18b44e	0.002330083
98	0x3a43b72b	0.0007465954
99	0x3bab01e6	0.005218732
100	0x37a8a77c	2.0105152e-05
101	0xbab3e36d	-0.0013724394
102	0xbb8459a3	-0.004039006
103	0x3b9742cd	0.0046161176
104	0xba950908	-0.0011370489
105	0x3b233096	0.0024900786
106	0x3a9fa043	0.0012178499
107	0xb99d21f8	-0.00029970682
108	0x3b3ab28d	0.0028487772
109	0x3b093d8e	0.002094123
110	0x3aac3c48	0.0013140524
111	0x3b54a480	0.0032446682
112	0xbb9187b6	-0.004441227
113	0x394adf1c	0.00019347336
114	0x3b79de66	0.0038126945
115	0x3b0e01f5	0.0021668647
116	0x3a65373f	0.0008743889
117	0x3b05e92c	0.002043317
118	0xbaef26c7	-0.001824581
119	0x3a103467	0.00055009726
120	0x3b3903ea	0.0028231093
121	0x3a3a1ad4	0.00070993346
122	0x3b84a5f5	0.004048104
123	0xbb495b23	-0.0030724488
124	0xbba5216a	-0.0050393837
125	0xb92eddc5	-0.00016676549
126	0xbb705732	-0.0036673066
127	0x3b9dbf9e	0.0048141023
128	0x3b62177a	0.0034498856
129	0xbba16f9b	-0.0049266345
130	0x3b0c234d	0.0021383346
131	0x3a319580	0.00067742914
132	0xba5324e8	-0.00080545107
133	0x3c191b4b	0.009344886
134	0x394d51bc	0.00019580772
135	0xbb2ac053	-0.0026054576
136	0xbb1f0ab6	-0.0024267859
137	0xbb160b3e	-0.0022894884
138	0x3b97463c	0.004616527
139	0x3b696f62	0.0035619368
140	0xba253728	-0.00063024694
141	0x3b65e03e	0.0035076286
142	0x3b2fc52d	0.0026820407
143	0x3b197451	0.0023415277
144	0xbab90043	-0.0014114458
145	0xbb6786c1	-0.0035328122
146	0x39174b19	0.00014428458
147	0x3ba131ca	0.0049192654
148	0x3aa44698	0.0012533246
149	0xbae6caee	-0.0017608085
150	0x3a40806a	0.0007343354
151	0x3c39f6cd	0.011350346
152	0x3a9e4e1d	0.0012077723
153	0xb3f52f00	-1.1417251e-07
154	0xba7c8c26	-0.0009633921
155	0x398fbd4f	0.0002741613
156	0xb903d6dc	-0.00012573175
157	0x399314a0	0.00028053392
158	0x39ca30a4	0.00038564682
159	0xbb41920a	-0.002953651
160	0xbc26808d	-0.010162485
161	0xba1addf4	-0.00059077074
162	0xb9b64113	-0.0003476223
163	0x3a3b3a4c	0.0007142171
164	0x3a019077	0.00049424864
165	0xbae56203	-0.0017500523
166	0xbabdb4ee	-0.0014473477
167	0xbae120ad	-0.0017175876
168	0x3b7bf2aa	0.00384442
169	0xbb7e800c	-0.0038833646
170	0xbab83d9f	-0.001405645
171	0xba174a89	-0.00057712995
172	0xb8871e70	-6.442971e-05
173	0x38ab2fff	8.1628554e-05
174	0xbbcb6a16	-0.006207715
175	0x393d1735	0.0001803309
176	0x3b6e936b	0.0036403786
177	0xbae51ec8	-0.0017480487
178	0xba7f119a	-0.0009730101
179	0xb9244d44	-0.00015669042
180	0x3b70e3ae	0.0036756801
181	0x3b8b6417	0.004253875
182	0x3ab9e240	0.0014181808
183	0xb9d53cc5	-0.00040671803
184	0xbb78addb	-0.0037945423
185	0xb8adba42	-8.283976e-05
186	0x39c3d700	0.00037353486
187	0x3ad10a9d	0.0015948598
188	0xba2258d4	-0.0006193046
189	0xba972c47	-0.0011533581
190	0xb7f9598e	-2.9724815e-05
191	0xbb906e93	-0.0044077127
192	0xbbc30840	-0.005951911
193	0xbbf119d2	-0.0073578143
194	0xbb3551a7	-0.0027667077
195	0x3b950ae0	0.0045484155
196	0x3affa2e9	0.0019503507
197	0xbbdaf1e4	-0.0066816676
198	0x3c175fe6	0.009239173
199	0x3bb16d1e	0.005414619
200	0x3b23453a	0.0024913088
201	0xbb775276	-0.003773836
202	0xbb50ea96	-0.0031878105
203	0xbbd03247	-0.00635365
204	0x3c240632	0.010011243
205	0x3adb5d47	0.0016736173
206	0x3bffc19a	0.0078050615
207	0x3aece71c	0.0018074247
208	0xba362608	-0.0006948416
209	0x396d8da2	0.00022654844
210	0x3b71edee	0.0036915499
211	0x3b361cd4	0.002778818
212	0x395d2fef	0.00021094059
213	0xbb4c1c31	-0.0031144733
214	0xbbe060c5	-0.0068474733
215	0xbbcc1c40	-0.0062289536
216	0xbbd5c75a	-0.0065240087
217	0xbbbb8c74	-0.0057235304
218	0x3b943848	0.004523311
219	0x3c39dfaa	0.01134483
220	0x3bb87db3	0.005630219
221	0x3bc54371	0.0060200025
222	0x3c38f864	0.01128969
223	0x3c12eaff	0.00896716
224	0x3bf2cb9d	0.0074095265
225	0x3aaefd96	0.0013350721
226	0x38c1f501	9.248593e-05
227	0x3a6a4f82	0.0008938239
228	0xbc363ef7	-0.01112341
229	0xbb977bd0	-0.004622914
230	0xbbe79de7	-0.007068384
231	0xba21bb43	-0.0006169567
232	0x3b2ae6c6	0.0026077493
233	0x3a5a1d51	0.00083204085
234	0xb9787b2c	-0.00023697008
235	0x3af85b88	0.0018948177
236	0xbaf6b478	-0.0018822094
237	0xba94e0f7	-0.0011358549
238	0xba87f524	-0.001037274
239	0x3afefd48	0.0019454146
240	0xbb1e90d4	-0.002419521
241	0xbb063bb8	-0.0020482372
242	0x3b3e116b	0.002900208
243	0xbaa90fb9	-0.0012898362
244	0xbb484f06	-0.003056468
245	0xbbe2dff3	-0.0069236695
246	0x3b249e60	0.0025118813
247	0xba18856c	-0.0005818221
248	0x3ad35f30	0.001612639
249	0x3b070ee6	0.0020608245
250	0xb9f52760	-0.00046759378
251	0xba9337e5	-0.0011231868
252	0x3b8cb2d0	0.004293777
253	0x3c8281f9	0.015931116
254	0x3c4ee0e4	0.01262686
255	0x3b2ddb84	0.0026528547

cnn.3.bias f4 [64]
0	0xbc8de816	-0.017322581
1	0xbb648f62	-0.0034875502
2	0xbc942aba	-0.01808678
3	0xbb862a2a	-0.004094382
4	0xbbde24dc	-0.0067792963
5	0xbcd3722e	-0.025811281
6	0xbbb56424	-0.0055356193
7	0x3c4798a9	0.012182393
8	0x3c23fdd5	0.010009249
9	0x3b43e6f3	0.0029892295
10	0xbbbd1b3e	-0.00577107
11	0xb9e006d8	-0.00042729708
12	0xba3161e1	-0.0006766599
13	0xbb64b6f6	-0.0034899092
14	0xbbf6b60f	-0.0075290273
15	0xbb791736	-0.003800822
16	0x39f28aa6	0.00046261138
17	0x3c6023b2	0.013680385
18	0xba3fd9c4	-0.00073185214
19	0x3b44f4bc	0.00300531
20	0xbb97188b	-0.00461108
21	0xbbe351af	-0.0069372277
22	0xbc2e98f9	-0.010656589
23	0xba71b622	-0.00092205603
24	0xbaa9f5a6	-0.0012966886
25	0xb9e720db	-0.00044084233
26	0xba902f58	-0.0011000438
27	0x3bac44f6	0.005257244
28	0xbb2f2fc0	-0.0026731342
29	0x3b4ea17f	0.0031529365
30	0xbb93c619	-0.004509699
31	0xbc004d35	-0.007830908
32	0xbb2d32f4	-0.0026428076
33	0xb8ea7742	-0.00011180203
34	0xbc24c60b	-0.010056983
35	0xbab695be	-0.0013930125
36	0xbb1be22c	-0.0023785932
37	0xbae330ce	-0.001733327
38	0xbb82365f	-0.0039737667
39	0xba1bc860	-0.0005942639
40	0xba6efb86	-0.00091164594
41	0xbae1bc5e	-0.0017222275
42	0x3aff1c25	0.0019463344
43	0xbb267bb8	-0.0025403332
44	0xba13d177	-0.00056388177
45	0xbb93391c	-0.004492892
46	0xbb284e94	-0.0025681602
47	0xbad01e3c	-0.0015878151
48	0xbb805fde	-0.0039176783
49	0xbbca54f1	-0.0061746766
50	0xbc144a81	-0.009050966
51	0xbb7207a6	-0.0036930828
52	0xbbb44f9e	-0.005502655
53	0xb93ae8ea	-0.0001782511
54	0x39a2a2fd	0.00031020484
55	0xba507698	-0.0007952242
56	0xbb0960ae	-0.0020962167
57	0xba6a0b81	-0.0008928106
58	0xba68cbcf	-0.00088804675
59	0xba7d046c	-0.0009651843
60	0xbbd6ecc6	-0.0065589873
61	0xbb8b8aaa	-0.0042584734
62	0xbc221150	-0.009891823
63	0xba58a5bd	-0.0008264443

cnn.5.weight f4 [64]
0	0x3d307ac2	0.04308582
1	0x3dc70efc	0.09719655
2	0x3e3a5b05	0.18198784
3	0x3ddb468c	0.10706815
4	0x3d5d8b7d	0.054088105
5	0x3e242fc5	0.16033848
6	0x3d42cdb1	0.047559444
7	0x3de3fc77	0.11132138
8	0x3e2ed117	0.17071949
9	0x3da32a05	0.07966999
10	0x3dfa577e	0.12223719
11	0x3d68b4a0	0.056812882
12	0x3cfb6a8b	0.030690452
13	0x3d3a8bb4	0.045543388
14	0x3da2a764	0.079420835
15	0x3da57680	0.08079243
16	0x3ca07c4a	0.019590516
17	0x3de6ab3e	0.112631306
18	0x3d1ee1fa	0.038789727
19	0x3dc8ae44	0.097988635
20	0x3d9bd791	0.076094754
21	0x3dcd1019	0.10012836
22	0x3d998df2	0.07497777
23	0x3d8274ba	0.0636992
24	0x3d4e583f	0.050377127
25	0x3d2792cb	0.040911477
26	0x3d299e9e	0.041411035
27	0x3d6b2042	0.05740381
28	0x3dff1ee0	0.12457061
29	0x3d0f9166	0.035050772
30	0x3d5eaa14	0.054361418
31	0x3dadb508	0.084817946
32	0x3de297c5	0.11064104
33	0x3cd2e9bb	0.025746217
34	0x3e31a16b	0.17346732
35	0x3d1f71e0	0.03892696
36	0x3d5ff255	0.054674465
37	0x3d47287f	0.048622604
38	0x3e020f01	0.12701036
39	0x3d92b5be	0.07163571
40	0x3d8e0e7f	0.06936359
41	0x3d7ebca7	0.06219163
42	0x3d33299a	0.043740846
43	0x3cf27515	0.029596845
44	0x3d670720	0.05640328
45	0x3dd44abf	0.10365819
46	0x3d7f315f	0.062302943
47	0x3d4ce163	0.050019633
48	0x3d91e44b	0.071236216
49	0x3de6bb8c	0.112662405
50	0x3d9a1261	0.07523037
51	0x3e002b0c	0.12516421
52	0x3d579409	0.05263141
53	0x3cee5989	0.029095428
54	0x3cec192d	0.028820598
55	0x3cdea8c6	0.027180087
56	0x3d86da84	0.06584647
57	0x3d1a83f7	0.037723508
58	0x3d2969fa	0.041360833
59	0x3d3e0625	0.04639258
60	0x3d18540d	0.037189532
61	0x3d862aee	0.06551157
62	0x3e52b47c	0.20576662
63	0x3cc972cb	0.02459087

cnn.5.bias f4 [64]
0	0x3bc53948	0.0060187913
1	0xbc5038a2	-0.012708815
2	0x3d94fe45	0.072750606
3	0xbc84d70c	-0.016215824
4	0x3c8b97f3	0.017040228
5	0x3d95ee90	0.07320893
6	0x3b0cf7cd	0.0021510005
7	0x3d14a64e	0.036291413
8	0x3c04b527	0.008099831
9	0x3b251439	0.0025189056
10	0x3c00ebac	0.007868689
11	0xba07bfbd	-0.00051784125
12	0xba5a1e44	-0.000832055
13	0xbbdb712f	-0.006696842
14	0xbbd6cdfd	-0.0065553174
15	0xbb78474d	-0.0037884295
16	0x379f6489	1.9001092e-05
17	0x3bbf7a3e	0.00584343
18	0xba343370	-0.000687412
19	0xbac513d8	-0.0015035821
20	0xbad6f1f7	-0.0016399015
21	0x3c2cd443	0.010548654
22	0xbc3b671c	-0.011438157
23	0xb8d7f24f	-0.000102971324
24	0xb9354f90	-0.00017291144
25	0x3a6dabf0	0.0009066453
26	0x3b02d76d	0.001996483
27	0xbba84bee	-0.0051360046
28	0xbbc1e303	-0.0059169545
29	0x3b0791bf	0.0020686237
30	0xbb8c2d32	-0.0042778486
31	0xbc0f18a3	-0.008733901
32	0xbc0170f8	-0.007900469
33	0xb98a401d	-0.0002636918
34	0xbc4bcdd0	-0.012439206
35	0xba7897dd	-0.00094830786
36	0x3a539c51	0.0008072304
37	0xbc68e80b	-0.01421548
38	0xbbf9e000	-0.00762558
39	0xbbe05d34	-0.006847048
40	0xbba74f7c	-0.005105911
41	0x3b19898c	0.0023427932
42	0xbb572fcc	-0.0032834886
43	0x3a91d971	0.0011127425
44	0xbac2774e	-0.0014836581
45	0xbb2a8405	-0.0026018631
46	0xba95a8f3	-0.0011418149
47	0xbb0b0e82	-0.0021218364
48	0x3bec49cf	0.007210947
49	0xbc5c1434	-0.013432551
50	0xbbf86f74	-0.0075816456
51	0xbb859534	-0.0040766243
52	0xbbc69c41	-0.0060611074
53	0xb95882f7	-0.00020648153
54	0xb916280a	-0.0001432003
55	0x398e344d	0.00027123318
56	0x3b3b91c9	0.002862083
57	0xbad63ed8	-0.0016345633
58	0xbae9c5e3	-0.0017835464
59	0xbb4837d7	-0.0030550861
60	0x3c1b4bbb	0.009478505
61	0xbbd5dd36	-0.0065266145
62	0x3bc4efcf	0.0060100327
63	0xba58803b	-0.0008258854

cnn.5.running_mean f4 [64]
0	0xbb3c3748	-0.0028719474
1	0x3b9379ba	0.004500595
2	0x3a9b65de	0.001185592
3	0x3bd905f8	0.006623026
4	0x379538ea	1.7788687e-05
5	0xbae20de8	-0.0017246576
6	0xba6d0cec	-0.0009042758
7	0x3c9d088c	0.019169115
8	0x3c308348	0.010773487
9	0x3b724e11	0.00369728
10	0xba0f0e8b	-0.0005457184
11	0xb8b891f3	-8.800989e-05
12	0xb8f2ec94	-0.00011583525
13	0xba3e29b3	-0.00072541385
14	0xba9a99eb	-0.0011795139
15	0xba4bc4a5	-0.0007773138
16	0x39b10585	0.00033764183
17	0x3c70b42a	0.014691392
18	0xb9251b55	-0.00015745808
19	0x3b80a265	0.003925609
20	0xb8b52f74	-8.6395914e-05
21	0xb9fa5951	-0.00047750262
22	0xbb04927b	-0.002022891
23	0xb94bf158	-0.00019449496
24	0xb98a767e	-0.00026409695
25	0xb8bf1d05	-9.112995e-05
26	0xb9641c48	-0.0002175431
27	0x3bb12e2a	0.0054071145
28	0xba117741	-0.0005549081
29	0x3b5ff7e0	0.0034174845
30	0xba6c6c9c	-0.00090188696
31	0xbab20146	-0.0013580702
32	0xba0feedc	-0.000549061
33	0x39110f80	0.00013834052
34	0xba63f2cc	-0.00086955423
35	0xb99521f7	-0.000284448
36	0xba012e62	-0.0004927871
37	0x3ab45e82	0.0013761076
38	0xba5729a5	-0.00082078046
39	0x3b12a78e	0.0022377702
40	0x3a73086e	0.00092709705
41	0xb9b8fb8b	-0.0003528263
42	0x3b08799e	0.0020824443
43	0xba0c0b7b	-0.0005342287
44	0xb8d2dd70	-0.00010054826
45	0xba74b0a6	-0.0009334184
46	0x39999906	0.00029296445
47	0xb9ae278f	-0.0003321734
48	0xb98cd109	-0.00026858624
49	0x3a39184b	0.000706081
50	0xbadc538f	-0.001680957
51	0xba225834	-0.0006192953
52	0xba8ad0f8	-0.0010590842
53	0xb72adb94	-1.0183914e-05
54	0x3a08a8a2	0.00052131165
55	0xb92d85df	-0.00016548437
56	0xb9e75e9e	-0.0004413025
57	0xb8cd8ee9	-9.801781e-05
58	0xb944931f	-0.00018746823
59	0xb956fe0e	-0.00020503273
60	0xbaa0afb6	-0.0012259397
61	0xba38c44c	-0.00070482935
62	0xba325db7	-0.0006804126
63	0xb932a843	-0.00017038085

cnn.5.running_var f4 [64]
0	0x374e768b	1.2306157e-05
1	0x38b03edf	8.404045e-05
2	0x39a323b7	0.00031116392
3	0x39c44cf0	0.00037441356
4	0x380f9dbd	3.4240762e-05
5	0x395e8ed1	0.00021224773
6	0x33a95e33	7.8868105e-08
7	0x39bdd422	0.0003620694
8	0x381595d7	3.5663918e-05
9	0x37308c5e	1.0523099e-05
10	0x372892ec	1.0047788e-05
11	0x2fe1424e	4.0974374e-10
12	0x3330888b	4.110238e-08
13	0x33802b8a	5.968384e-08
14	0x368351c0	3.913621e-06
15	0x3344aa61	4.5789765e-08
16	0x340362bd	1.2236247e-07
17	0x38791989	5.9390008e-05
18	0x31c4fe55	5.733265e-09
19	0x37272fc4	9.965097e-06
20	0x36e38b8e	6.7813735e-06
21	0x3779d320	1.4890713e-05
22	0x363b4efb	2.7911144e-06
23	0x31f277f2	7.056763e-09
24	0x32749bcd	1.4238094e-08
25	0x313ae737	2.7197993e-09
26	0x3312e5a5	3.4202134e-08
27	0x3827857a	3.9940212e-05
28	0x323079bf	1.027223e-08
29	0x3692dc9c	4.3768214e-06
30	0x34e9dbfb	4.355969e-07
31	0x368c1a29	4.1753706e-06
32	0x3260a921	1.30769715e-08
33	0x33aaab3e	7.947391e-08
34	0x37bae763	2.2280676e-05
35	0x328bd1c8	1.6277127e-08
36	0x33248d27	3.8312603e-08
37	0x37cebffe	2.4646517e-05
38	0x332f3933	4.0797385e-08
39	0x3812779c	3.4920507e-05
40	0x36e877e8	6.9280977e-06
41	0x331d8d17	3.668273e-08
42	0x351c10e9	5.8139136e-07
43	0x334dc95d	4.791342e-08
44	0x322b3b18	9.966946e-09
45	0x31e7242c	6.727097e-09
46	0x371210fc	8.706233e-06
47	0x331b030c	3.609152e-08
48	0x36c50fcb	5.872896e-06
49	0x3846e72e	4.742218e-05
50	0x3600fcbd	1.92206e-06
51	0x35810bb6	9.614657e-07
52	0x35667d54	8.5864053e-07
53	0x321ed71c	9.245721e-09
54	0x34880815	2.5337854e-07
55	0x319ead3b	4.6180992e-09
56	0x346826e4	2.1620832e-07
57	0x3406fa07	1.2570682e-07
58	0x3114ffc0	2.1682212e-09
59	0x31940c1d	4.308744e-09
60	0x35561088	7.974527e-07
61	0x3578a902	9.263314e-07
62	0x38046946	3.1569296e-05
63	0x314db6eb	2.9935403e-09

lstm_value.weight_ih_l0 f4 [512, 64]
0	0xb63f5709	-2.851188e-06
1	0x37d6cfb0	2.56075e-05
2	0xb7f072f5	-2.866376e-05
3	0x38238073	3.8981856e-05
4	0x36b245a1	5.3129193e-06
5	0xb871660a	-5.755391e-05
6	0xb61d4145	-2.3432815e-06
7	0xb85d3981	-5.274406e-05
8	0xb7093d9f	-8.180184e-06
9	0xb640ae47	-2.8711672e-06
10	0xb706ba09	-8.030337e-06
11	0x320e0786	8.2671985e-09
12	0x342959ec	1.5772065e-07
13	0xb56f518e	-8.9153116e-07
14	0x361410a3	2.2063402e-06
15	0xb443a3b0	-1.822034e-07
16	0x337ed12f	5.9329235e-08
17	0xb561b382	-8.408025e-07
18	0x32b58ad0	2.1134298e-08
19	0x36d0a946	6.218589e-06
20	0x35d5c992	1.5928401e-06
21	0xb6cf60aa	-6.180334e-06
22	0x35e769e5	1.724166e-06
23	0x3352fcc0	4.912431e-08
24	0xb43214a2	-1.6585048e-07
25	0x326cca0c	1.3782948e-08
26	0xb2be5aac	-2.2160144e-08
27	0x3596e221	1.1241683e-06
28	0x350ab889	5.167754e-07
29	0xb59ff09d	-1.1916451e-06
30	0x35201826	5.9639785e-07
31	0x36009e9b	1.9165807e-06
32	0x35131211	5.478806e-07
33	0xb3c2a7a0	-9.06432e-08
34	0x370ae9d9	8.279888e-06
35	0xb3eef5fb	-1.1127482e-07
36	0xb4458ab5	-1.8397516e-07
37	0xb554e784	-7.9313054e-07
38	0x35144454	5.5233727e-07
39	0x36558ac1	3.1820239e-06
40	0x368bc1d8	4.165089e-06
41	0xb50be329	-5.2112097e-07
42	0x33f5bc1a	1.1442917e-07
43	0xb2e5fe02	-2.6774618e-08
44	0x34025fbb	1.214202e-07
45	0xb384c3e7	-6.1823634e-08
46	0x364a7f73	3.017453e-06
47	0x33f385bc	1.13398954e-07
48	0x36b44d08	5.3733856e-06
49	0x36f95c74	7.4315412e-06
50	0x3662d90c	3.3802962e-06
51	0x3574b325	9.1157773e-07
52	0x359c297c	1.1634979e-06
53	0x33f37148	1.1336175e-07
54	0xb3bc3730	-8.764471e-08
55	0xb340c404	-4.488176e-08
56	0xb51c0dfa	-5.813487e-07
57	0x335e1584	5.170797e-08
58	0xb4789889	-2.3152292e-07
59	0x3377ba54	5.7678633e-08
60	0x3593f31a	1.1023105e-06
61	0x3569a56c	8.7039984e-07
62	0x35e9d816	1.7422742e-06
63	0xb29a32c1	-1.795104e-08
64	0xb9afc0f9	-0.00033522377
65	0xb9bcaa62	-0.000359851
66	0x38b86b58	8.793798e-05
67	0xb988d113	-0.00026095714
68	0x3937a45b	0.00017513467
69	0x3910f419	0.00013823844
70	0xb75a418a	-1.3009072e-05
71	0x39a02b9e	0.00030550075
72	0xb8f41f66	-0.00011640675
73	0x371e83bf	9.448208e-06
74	0xb8e33ea0	-0.00010835868
75	0x35681129	8.6451706e-07
76	0x365faad6	3.332903e-06
77	0xb79c99cc	-1.8668266e-05
78	0x38286de8	4.015668e-05
79	0x36c4eb92	5.868679e-06
80	0xb53d107e	-7.0431986e-07
81	0x38b9c40f	8.858006e-05
82	0x34863810	2.5000236e-07
83	0x36f27863	7.226177e-06
84	0xb7c4fcef	-2.3482802e-05
85	0xb84de5ea	-4.9089933e-05
86	0x378f1178	1.7055063e-05
87	0x35b04363	1.3132634e-06
88	0x35cce8d4	1.5266946e-06
89	0xb60f2657	-2.1330977e-06
90	0xb67097b4	-3.585109e-06
91	0xb817305c	-3.6046244e-05
92	0x3783217f	1.5632015e-05
93	0xb753dcef	-1.262802e-05
94	0x37377512	1.0934908e-05
95	0x36f49732	7.289368e-06
96	0x3690e314	4.31797e-06
97	0xb652d151	-3.1414277e-06
98	0xb8c2c4eb	-9.28732e-05
99	0xb5c3f40e	-1.4599661e-06
100	0x36f8518c	7.4004693e-06
101	0xb88b63d5	-6.646632e-05
102	0x35114a77	5.412507e-07
103	0xb73aad97	-1.1126881e-05
104	0x37e163a3	2.6868487e-05
105	0xb6c4fa8d	-5.870423e-06
106	0x360010da	1.9083295e-06
107	0x35c9a342	1.5023181e-06
108	0x33806ea3	5.980589e-08
109	0x372d203c	1.0319109e-05
110	0xb84896f3	-4.78243e-05
111	0xb5866d8a	-1.0015658e-06
112	0x378ec3a9	1.701883e-05
113	0x3510e730	5.39806e-07
114	0x38020040	3.0994648e-05
115	0x381b8974	3.7082893e-05
116	0xb68a7c10	-4.1271633e-06
117	0x353e127a	7.08074e-07
118	0xb652b2bb	-3.1396473e-06
119	0xb5a96de5	-1.2623465e-06
120	0x3668ea22	3.4706977e-06
121	0xb6393809	-2.7599765e-06
122	0xb5773b04	-9.210055e-07
123	0xb64105db	-2.876265e-06
124	0x37ac2279	2.052005e-05
125	0xb6737b53	-3.6281606e-06
126	0x391771d0	0.0001444288
127	0xb53d4250	-7.0504484e-07
128	0xb845a4dc	-4.7121997e-05
129	0x37cd8fef	2.4504929e-05
130	0xb84adbde	-4.836532e-05
131	0x38778fc7	5.9023292e-05
132	0xb70c0602	-8.346049e-06
133	0xb9054718	-0.00012710353
134	0xb6b87a86	-5.497891e-06
135	0xb8a5f654	-7.913695e-05
136	0xb7b0f388	-2.1094238e-05
137	0xb708dff6	-8.158377e-06
138	0xb8071af2	-3.2211603e-05
139	0x34f6126a	4.583447e-07
140	0x35a50ee4	1.2297792e-06
141	0xb5fc0238	-1.8776109e-06
142	0x377cf98c	1.5078473e-05
143	0x359c3505	1.1638336e-06
144	0x33e92742	1.0857049e-07
145	0x3758549b	1.2894302e-05
146	0x32c0cb06	2.2444066e-08
147	0xb5d60f1a	-1.5948638e-06
148	0x34fe6cd8	4.739038e-07
149	0xb7d5e2f3	-2.549726e-05
150	0x378a36d5	1.6476415e-05
151	0x34e0d227	4.1876157e-07
152	0x356b590b	8.7673897e-07
153	0xb54592fc	-7.360211e-07
154	0xb2ca1c06	-2.3528639e-08
155	0xb6ab2402	-5.100389e-06
156	0x36f1748d	7.195928e-06
157	0xb61933c0	-2.28289e-06
158	0x36400910	2.8615505e-06
159	0x37271627	9.959133e-06
160	0x36324c29	2.6568398e-06
161	0xb49f2dee	-2.9649476e-07
162	0x371c2ed7	9.30923e-06
163	0x34149f3b	1.3841502e-07
164	0x35315ee8	6.6075745e-07
165	0xb6c4384d	-5.8478095e-06
166	0x35437eba	7.282757e-07
167	0x361ff7f8	2.3837183e-06
168	0x37470ad9	1.186385e-05
169	0xb5ed5620	-1.7682942e-06
170	0xb59b30c9	-1.1562598e-06
171	0xb4661604	-2.1428428e-07
172	0x35fe439b	1.894415e-06
173	0x36ac1c17	5.1292695e-06
174	0xb6303dd8	-2.6262042e-06
175	0x350dec2f	5.2870286e-07
176	0x37665322	1.3728424e-05
177	0x378f237f	1.7063458e-05
178	0x37197e0e	9.14886e-06
179	0x371e3409	9.429649e-06
180	0xb4d7b225	-4.0176488e-07
181	0x34e703ff	4.303001e-07
182	0xb424a040	-1.5331989e-07
183	0xb4cbc9dc	-3.7958569e-07
184	0x36849339	3.9510455e-06
185	0xb481b4b4	-2.41596e-07
186	0x3580019a	9.537209e-07
187	0xb4294b52	-1.5766753e-07
188	0x35d164d5	1.5601059e-06
189	0x36a7c3ba	4.9997734e-06
190	0x371dd710	9.408002e-06
191	0xb41bc5fb	-1.4507525e-07
192	0xb9cf49fa	-0.00039537234
193	0xba24b522	-0.00062830944
194	0x39f68236	0.0004701779
195	0xba1e3075	-0.00060344423
196	0x399dab4d	0.00030073003
197	0x39f9bc4d	0.00047633276
198	0xb712810e	-8.732326e-06
199	0x3a80025e	0.000976633
200	0xb9411145	-0.00018412348
201	0x385b4978	5.2282092e-05
202	0xb90a4f76	-0.00013190307
203	0x35c7cae4	1.4885704e-06
204	0x36d247d8	6.2668514e-06
205	0xb7c6f36d	-2.3716793e-05
206	0x388e024d	6.771516e-05
207	0x37116dc4	8.66823e-06
208	0xb5d58084	-1.590714e-06
209	0x3903cd3a	0.00012569586
210	0x33514290	4.8722143e-08
211	0xb6ccc8ac	-6.103035e-06
212	0xb823300e	-3.8906983e-05
213	0xb8ad4eea	-8.263982e-05
214	0x3721aac7	9.63611e-06
215	0x36726998	3.6122274e-06
216	0x36010f56	1.9231425e-06
217	0xb6095e63	-2.046953e-06
218	0xb6c6e3a3	-5.9273602e-06
219	0xb8985ca3	-7.26518e-05
220	0x3809b3d4	3.2830823e-05
221	0xb795bab5	-1.7849126e-05
222	0x37285679	1.0033714e-05
223	0x380f0dfb	3.4106877e-05
224	0x34f81e62	4.6215706e-07
225	0xb689a44d	-4.1020453e-06
226	0xb9249467	-0.00015695543
227	0x35357465	6.759713e-07
228	0x3717d8e6	9.050802e-06
229	0xb8bb9659	-8.944859e-05
230	0x36ffcbfc	7.623339e-06
231	0xb7a51374	-1.9678591e-05
232	0x381e3d01	3.772695e-05
233	0xb50752c8	-5.041188e-07
234	0x3754b182	1.2677514e-05
235	0x3551308a	7.79292e-07
236	0xb5891fa7	-1.0216507e-06
237	0x38231eaf	3.8890805e-05
238	0xb897dbb2	-7.2411625e-05
239	0xb68c01ce	-4.1725352e-06
240	0x36a8d028	5.0310227e-06
241	0xb8ca8730	-9.657291e-05
242	0x37fd1c88	3.0173236e-05
243	0x3884b03b	6.327076e-05
244	0xb4985038	-2.8370573e-07
245	0xb4a4fb02	-3.0730013e-07
246	0xb73867e1	-1.0991441e-05
247	0xb50aa486	-5.164842e-07
248	0x37712550	1.4373407e-05
249	0xb6031d57	-1.95376e-06
250	0xb5f14b51	-1.7977819e-06
251	0xb6c50bac	-5.8724163e-06
252	0x365a7064	3.2549951e-06
253	0x36eb7803	7.017517e-06
254	0x39339a01	0.00017128141
255	0xb5bb5068	-1.3955987e-06
