quant_prediction/best_model_1.pth (torch, 871586 bytes, 24 tensors)

time_weights f4 [24]
0	0x3b6252df	0.0034534258
1	0x3c0daf70	0.008647785
2	0x3c281985	0.010259991
3	0x3c282e54	0.010264952
4	0x3c217ae2	0.009855958
5	0x3c197863	0.009367081
6	0x3c1fca81	0.009752871
7	0x3c1e1730	0.009649083
8	0x3c11c8f1	0.008898006
9	0x3c0ffd0b	0.0087883575
10	0x3c05127a	0.008122081
11	0x3c005f34	0.007835198
12	0x3bf8dc00	0.0075945854
13	0x3bf42a0e	0.0074513024
14	0x3bcf2c8a	0.006322448
15	0x3bdd8a8c	0.006760901
16	0x3bdeba0c	0.006797081
17	0x3bdb0bcd	0.0066847564
18	0x3bddbd97	0.0067669856
19	0xbb320fc7	-0.0027170049
20	0xbc223225	-0.009899651
21	0xbc8ea994	-0.017414846
22	0xbd56b0ce	-0.052414708
23	0xbce2d521	-0.027689518

pos_enc f4 [24, 8]
0	0x00000000	0.0
1	0x3f800000	1.0
2	0x00000000	0.0
3	0x3f800000	1.0
4	0x00000000	0.0
5	0x3f800000	1.0
6	0x00000000	0.0
7	0x3f800000	1.0
8	0x3f576aa4	0.84147096
9	0x3f0a5141	0.54030234
10	0x3dcc7576	0.099833414
11	0x3f7eb898	0.9950042
12	0x3c23d657	0.009999833
13	0x3f7ffcb9	0.99995
14	0x3a83126d	0.0009999998
15	0x3f7ffff8	0.9999995
16	0x3f68c7b7	0.9092974
17	0xbed51133	-0.41614684
18	0x3e4b6ff8	0.19866931
19	0x3f7ae5a5	0.9800666
20	0x3ca3d43e	0.019998666
21	0x3f7ff2e5	0.9998
22	0x3b031268	0.0019999985
23	0x3f7fffdf	0.99999803
24	0x3e1081c3	0.14112
25	0xbf7d7026	-0.9899925
26	0x3e974e6c	0.2955202
27	0x3f7490ef	0.9553365
28	0x3cf5b91f	0.0299955
29	0x3f7fe283	0.99955004
30	0x3b449b92	0.0029999954
31	0x3f7fffb5	0.9999955
32	0xbf41bdcf	-0.7568025
33	0xbf275530	-0.6536436
34	0x3ec761d7	0.38941833
35	0x3f6bcaa7	0.921061
36	0x3d23cbdb	0.039989334
37	0x3f7fcb94	0.9992001
38	0x3b831257	0.003999989
39	0x3f7fff7a	0.999992
40	0xbf757c10	-0.9589243
41	0x3e913c2c	0.2836622
42	0x3ef57743	0.47942552
43	0x3f60a940	0.87758255
44	0x3d4cb6f4	0.049979165
45	0x3f7fae19	0.99875027
46	0x3ba3d6dd	0.004999979
47	0x3f7fff2e	0.9999875
48	0xbe8f0f8c	-0.2794155
49	0x3f75cdb8	0.96017027
50	0x3f108c68	0.5646424
51	0x3f534932	0.8253356
52	0x3d759cd1	0.059964005
53	0x3f7f8a12	0.99820054
54	0x3bc49b58	0.0059999637
55	0x3f7ffed2	0.999982
56	0x3f283046	0.6569866
57	0x3f40ffbd	0.75390226
58	0x3f24eb72	0.6442176
59	0x3f43ccb3	0.7648422
60	0x3d8f3e32	0.06994285
61	0x3f7f5f81	0.997551
62	0x3be55fc5	0.006999942
63	0x3f7ffe65	0.9999755
64	0x3f7d4695	0.98935825
65	0xbe14fdf6	-0.14550003
66	0x3f37a4a5	0.717356
67	0x3f325b5f	0.6967067
68	0x3da3aa50	0.07991469
69	0x3f7f2e65	0.9968017
70	0x3c031212	0.007999914
71	0x3f7ffde7	0.999968
72	0x3ed30132	0.4121185
73	0xbf693fd5	-0.91113025
74	0x3f48881c	0.78332686
75	0x3f1f21d5	0.62161
76	0x3db8123e	0.089878544
77	0x3f7ef6c2	0.9959527
78	0x3c13743a	0.008999879
79	0x3f7ffd59	0.9999595
80	0xbf0b44f8	-0.5440211
81	0xbf56cd64	-0.8390715
82	0x3f576aa4	0.84147096
83	0x3f0a5141	0.54030234
84	0x3dcc7576	0.099833414
85	0x3f7eb898	0.9950042
86	0x3c23d657	0.009999833
87	0x3f7ffcb9	0.99995
88	0xbf7fff5c	-0.9999902
89	0x3b910572	0.004425698
90	0x3f64262a	0.89120734
91	0x3ee83dc3	0.4535962
92	0x3de0d372	0.1097783
93	0x3f7e73e8	0.9939561
94	0x3c343869	0.010999777
95	0x3f7ffc09	0.9999395
96	0xbf095cd8	-0.53657293
97	0x3f5806d0	0.84385395
98	0x3f6e9a1d	0.9320391
99	0x3eb986f7	0.36235783
100	0x3df52bac	0.119712204
101	0x3f7e28b5	0.99280864
102	0x3c449a70	0.011999711
103	0x3f7ffb48	0.999928
104	0x3ed72022	0.42016703
105	0x3f684e6f	0.9074468
106	0x3f76abc0	0.9635582
107	0x3e88f59d	0.26749888
108	0x3e04bed0	0.12963414
109	0x3f7dd700	0.9915619
110	0x3c54fc6a	0.012999633
111	0x3f7ffa76	0.9999155
112	0x3f7d9872	0.9906074
113	0x3e0c04d7	0.13673721
114	0x3f7c466f	0.98544973
115	0x3e2e0be7	0.16996728
116	0x3e0ee464	0.13954312
117	0x3f7d7ecc	0.990216
118	0x3c655e55	0.013999541
119	0x3f7ff994	0.999902
120	0x3f267944	0.65028787
121	0xbf427ae8	-0.7596879
122	0x3f7f5bd5	0.997495
123	0x3d90deba	0.07073732
124	0x3e19064f	0.14943813
125	0x3f7d201a	0.9887711
126	0x3c75c032	0.014999436
127	0x3f7ff8a1	0.9998875
128	0xbe936810	-0.2879033
129	0xbf75292c	-0.9576595
130	0x3f7fe40e	0.9995736
131	0xbcef33a3	-0.029199427
132	0x3e232450	0.15931821
133	0x3f7cbaed	0.98722726
134	0x3c831100	0.015999317
135	0x3f7ff79d	0.999872
136	0xbf761e25	-0.96139747
137	0xbe8ce236	-0.27516335
138	0x3f7dddbf	0.9916648
139	0xbe03efcb	-0.12884443
140	0x3e2d3e23	0.16918235
141	0x3f7c4f49	0.9855848
142	0x3c8b41dd	0.01699918
143	0x3f7ff688	0.9998555
144	0xbf4040b3	-0.75098723
145	0x3f290a84	0.6603167
146	0x3f794e14	0.9738476
147	0xbe68a7a7	-0.22720204
148	0x3e375387	0.17902957
149	0x3f7bdd2e	0.9838437
150	0x3c9372b2	0.017999027
151	0x3f7ff562	0.999838
152	0x3e197969	0.1498772
153	0x3f7d1bbf	0.9887046
154	0x3f7240ba	0.94630015
155	0xbea58631	-0.32328942
156	0x3e41643a	0.1888589
157	0x3f7b64a1	0.9820042
158	0x3c9ba37d	0.018998856
159	0x3f7ff42c	0.9998195
160	0x3f69b6c8	0.9129453
161	0x3ed0f022	0.40808207
162	0x3f68c7b8	0.90929747
163	0xbed5112f	-0.41614673
164	0x3e4b6ff8	0.19866931
165	0x3f7ae5a5	0.9800666
166	0x3ca3d43e	0.019998666
167	0x3f7ff2e5	0.9998
168	0x3f562f10	0.8366556
169	0xbf0c37fc	-0.54772925
170	0x3f5cfb4b	0.8632094
171	0xbf013d97	-0.50484604
172	0x3e557683	0.2084599
173	0x3f7a603c	0.9780309
174	0x3cac04f3	0.020998454
175	0x3f7ff18d	0.9997795
176	0xbc110515	-0.008851309
177	0xbf7ffd6f	-0.99996084
178	0x3f4ef9a1	0.80849653
179	0xbf16a800	-0.588501
180	0x3e5f7796	0.21822962
181	0x3f79d46a	0.97589743
182	0x3cb4359e	0.021998223
183	0x3f7ff024	0.999758
184	0xbf58a1e6	-0.8462204
185	0xbf0867bf	-0.53283304
186	0x3f3ee68a	0.74570525
187	0xbf2a9110	-0.666276
188	0x3e6972f0	0.22797751
189	0x3f794234	0.9736664
190	0x3cbc663d	0.02299797
191	0x3f7feeab	0.99973553

cnn.0.weight f4 [64, 19, 3]
0	0x39681182	0.00022131766
1	0xbb1c689c	-0.0023866063
2	0x3a0fd07e	0.0005486085
3	0xba6c508e	-0.0009014689
4	0xbb406883	-0.002935917
5	0x385a6ff4	5.2079515e-05
6	0x3ace9f77	0.0015764077
7	0xbb770546	-0.0037692352
8	0x39e021ff	0.00042749938
9	0xb8f6fcbe	-0.00011777271
10	0xb753fe0c	-1.263573e-05
11	0xbb385925	-0.0028129306
12	0x3b5e250e	0.0033896598
13	0x3b8e6057	0.0043449807
14	0xbb501133	-0.0031748533
15	0x0083d4d7	1.2106803e-38
16	0x8070ebd1	-1.037017e-38
17	0x8024aa55	-3.367181e-39
18	0x00844776	1.2147921e-38
19	0x8043560a	-6.183843e-39
20	0x800d2d94	-1.210212e-39
21	0x3b72beb5	0.003703994
22	0xbadeb7ff	-0.0016992091
23	0x3a83f3c5	0.0010067156
24	0xbb950dfd	-0.0045487867
25	0x3ba655db	0.0050761527
26	0x397a7641	0.00023885911
27	0xba105249	-0.00055054255
28	0x3bb02012	0.005374917
29	0xb9b6fcaa	-0.00034901995
30	0x399977a7	0.00029271582
31	0xbb83d6f0	-0.0040234253
32	0x39402ddf	0.00018327635
33	0x3ba82e2a	0.0051324563
34	0x3c53ccf3	0.012927282
35	0xbc20afd7	-0.0098075485
36	0x3b4527fd	0.003008365
37	0xbba9416f	-0.005165271
38	0x3c3fb6ce	0.011701299
39	0xbb34e591	-0.0027602653
40	0xba8a41b2	-0.0010548143
41	0x3a064606	0.00051221286
42	0x0038ac87	5.204679e-39
43	0x00496fea	6.744138e-39
44	0x8074df63	-1.0733054e-38
45	0x00114fd0	1.589835e-39
46	0x80244697	-3.331401e-39
47	0x0050ac01	7.408543e-39
48	0xbcabba6f	-0.020962922
49	0x3bf294fa	0.0074030133
50	0xbb339c06	-0.002740623
51	0x3b461f37	0.0030231008
52	0xbb50ab45	-0.0031840366
53	0x39da1400	0.000415951
54	0x3d19ece2	0.037579425
55	0xbae4e593	-0.0017463438
56	0xbcaa06c0	-0.020755172
57	0x38b937e4	8.831898e-05
58	0x38a3a452	7.803053e-05
59	0xb8b81bba	-8.778968e-05
60	0x389e44f2	7.546869e-05
61	0x391fad32	0.00015227942
62	0xb8b270e0	-8.508726e-05
63	0x3916eb2d	0.00014392725
64	0x38ee93f2	0.00011376281
65	0xb8d3e5b5	-0.0001010405
66	0x3a45bbb4	0.00075429236
67	0x3a346a77	0.00068823196
68	0x3a06e5a9	0.00051459164
69	0xbb809816	-0.00392438
70	0x3a4f989b	0.00079191633
71	0x3c77a484	0.015114907
72	0x00a6bfad	1.5313453e-38
73	0x00418b78	6.019339e-39
74	0x007e0e8e	1.1576494e-38
75	0x8045b3ff	-6.40122e-39
76	0x8016c7e8	-2.092094e-39
77	0x007624b4	1.0849755e-38
78	0xb9a724a2	-0.00031880016
79	0xb9e80385	-0.0004425311
80	0xb990a278	-0.0002758687
81	0xb9b51d24	-0.00034544722
82	0xb9d663b4	-0.00040891545
83	0xb9be753c	-0.0003632697
84	0xb9a94240	-0.00032283552
85	0xb9bcedf4	-0.00036035443
86	0xb9bd542a	-0.00036111596
87	0x3a6fb2dc	0.00091437786
88	0x3b37f48e	0.002806935
89	0xbae0f4dc	-0.0017162818
90	0xbb194063	-0.0023384325
91	0xb9f7b7ff	-0.000472486
92	0xbb1bf104	-0.002379478
93	0xbb120715	-0.0022282053
94	0xb7cbe5d4	-2.4306508e-05
95	0xba64017a	-0.000869773
96	0x38c8470d	9.5499774e-05
97	0x39220a0e	0.0001545327
98	0xb88e0abd	-6.773088e-05
99	0x0011bca2	1.628872e-39
100	0x8046d24a	-6.503922e-39
101	0x006495d8	9.237303e-39
102	0x00692dcc	9.659156e-39
103	0x006da40d	1.006892e-38
104	0x8103db82	-2.421839e-38
105	0xbace306d	-0.0015730985
106	0xbb8848f6	-0.0041590882
107	0xbb736826	-0.0037140935
108	0xb982003e	-0.00024795713
109	0xb96d0157	-0.0002260258
110	0xb9b00005	-0.0003356935
111	0x3d269d11	0.040677134
112	0x3c5ee268	0.013603784
113	0x3d141ac6	0.036158346
114	0x38774d5c	5.8961436e-05
115	0x395253fc	0.00020058447
116	0xb979b374	-0.00023813342
117	0xb972cd7e	-0.0002315547
118	0xb90f7baa	-0.00013683611
119	0xb7f45860	-2.912822e-05
120	0x3990ee15	0.00027643205
121	0x3993ce89	0.00028191906
122	0xb8c2520a	-9.265922e-05
123	0xba5aabea	-0.0008341657
124	0xba414a42	-0.0007373431
125	0xbaf690d9	-0.0018811479
126	0xbc0af12c	-0.008480351
127	0x3c35ef3f	0.011104404
128	0x3c5ff8a6	0.013670122
129	0x808fb46b	-1.3197198e-38
130	0x8030e2d4	-4.489474e-39
131	0x00088798	7.83326e-40
132	0x80a600e7	-1.5245016e-38
133	0x00641c8a	9.193788e-39
134	0x000ed75b	1.362952e-39
135	0x3a102aec	0.000549956
136	0x3a059968	0.00050964067
137	0x3a06d657	0.00051436335
138	0x3a0144cf	0.0004931213
139	0x3a40ee94	0.00073597697
140	0x39b2fc70	0.00034138886
141	0x3a5f1e17	0.00085112586
142	0x3a4f7d10	0.0007915059
143	0x38e3eb20	0.00010867999
144	0xb5c13d90	-1.4397538e-06
145	0xb9397717	-0.0001768734
146	0xb9ab496d	-0.00032670368
147	0x3a8add3a	0.0010594495
148	0x3b217c2e	0.0024640667
149	0xbb9ab49a	-0.0047212364
150	0xbbb6499b	-0.0055629737
151	0x3aef235e	0.0018244793
152	0xbb45ad8d	-0.0030163259
153	0x377af5cc	1.495839e-05
154	0x39d458f2	0.0004050206
155	0xb91e3c47	-0.00015090509
156	0x8023b824	-3.2803e-39
157	0x8054dbce	-7.793033e-39
158	0x005e51e3	8.661912e-39
159	0x0011028d	1.562118e-39
160	0x00950f47	1.368897e-38
161	0x00018966	1.41125e-40
162	0xbbb31816	-0.0054655178
163	0xb990ad82	-0.00027595094
164	0xbb22859f	-0.0024798883
165	0x3a7e0c0b	0.00096911256
166	0x3a3345f4	0.0006838732
167	0x3a0b4079	0.00053120364
168	0xbcb0b366	-0.021569919
169	0xbd109d93	-0.035306524
170	0x3c78d4bd	0.0151874395
171	0x3aa2f49a	0.0012432516
172	0x3a969fb7	0.001149169
173	0x3a3daf50	0.00072359014
174	0x3aa7d318	0.0012804
175	0x3aa40689	0.0012514155
176	0x3a4a858e	0.00077255897
177	0x3a97c47f	0.0011578946
178	0x3aa1ccdc	0.0012344378
179	0x3a4cb840	0.0007809438
180	0xb8e543d6	-0.00010932206
181	0xb999e366	-0.0002935186
182	0x39ebe9ee	0.00044996984
183	0xbb9f6ba0	-0.004865125
184	0xba3dbb6a	-0.00072377047
185	0xbbe641dd	-0.0070268945
186	0x80829254	-1.1991107e-38
187	0x8094577a	-1.3623034e-38
188	0x008582dd	1.2261066e-38
189	0x00946022	1.362614e-38
190	0x805bb140	-8.420615e-39
191	0x0016fb21	2.110469e-39
192	0x39f6aa68	0.0004704774
193	0x397f5942	0.00024351946
194	0xb9ab8e9f	-0.00032721923
195	0xb857b51f	-5.1428677e-05
196	0x39772618	0.00023569947
197	0xb9d09ba3	-0.0003978881
198	0x3a12083d	0.00055706856
199	0x39a1fee2	0.00030898215
200	0xb9a84136	-0.00032092043
201	0xbb732352	-0.003709991
202	0xbb5113aa	-0.003190259
203	0x3c16200c	0.009162914
204	0xbad0b780	-0.0015923828
205	0x3b14adc7	0.0022686587
206	0x3bb59484	0.005541386
207	0x3bad61fa	0.0052912207
208	0x3a522ef4	0.0008017861
209	0x3bddff40	0.006774813
210	0x3a8bf6a1	0.001067836
211	0x3aa33790	0.0012452472
212	0x3a3ec193	0.00072767696
213	0x801b000d	-2.479577e-39
214	0x00553d00	7.8279e-39
215	0x8069a07b	-9.700297e-39
216	0x003ae1ce	5.407462e-39
217	0x8055b974	-7.872545e-39
218	0x003b4e25	5.446327e-39
219	0xbc1cb2ca	-0.009564111
220	0xbb5a97e7	-0.00333547
221	0xbb9937f2	-0.0046758587
222	0xb685b9c8	-3.9853367e-06
223	0x389ded53	7.5305485e-05
224	0xb9986171	-0.000290643
225	0x3cec1665	0.028819272
226	0xbd15e49d	-0.036594976
227	0x3c7fe0f2	0.015617596
228	0xbab40c9c	-0.0013736668
229	0xbab36cb4	-0.0013689012
230	0xba4a8d8c	-0.00077267806
231	0xbab471bd	-0.0013766807
232	0xbab50133	-0.0013809561
233	0xba4be028	-0.00077772373
234	0xbab5c9df	-0.0013869366
235	0xbab145f7	-0.001352488
236	0xba50fccc	-0.000797224
237	0xb9eaa705	-0.00044756397
238	0xb9a56e28	-0.00031553325
239	0x3900c881	0.00012281725
240	0x3be7e084	0.007076325
241	0x3b484e19	0.0030564128
242	0xbb2cf020	-0.0026388243
243	0x001ef2be	2.842144e-39
244	0x00241640	3.31406e-39
245	0x803585c8	-4.915273e-39
246	0x00bf2313	1.7553162e-38
247	0x8000a325	-5.8525e-41
248	0x0005cf4a	5.33539e-40
249	0xba69219f	-0.00088932546
250	0xba70ae6a	-0.0009181263
251	0xb9ea6610	-0.00044708
252	0xba6bf0cf	-0.0009000422
253	0xba75b526	-0.00093730015
254	0xb9edb7d4	-0.00045341125
255	0xba6cd4df	-0.0009034406

cnn.0.bias f4 [64]
0	0xbc0124b3	-0.007882285
1	0xbd16554f	-0.03670245
2	0xbc01d63e	-0.0079246145
3	0x3c43d98d	0.011953724
4	0xbb858052	-0.004074135
5	0xbcca4109	-0.024689214
6	0xbc6d7f25	-0.014495646
7	0xbb8039bc	-0.0039131325
8	0xbc8d76da	-0.017268587
9	0xbb0c89bc	-0.00214444
10	0x3baec92c	0.00533404
11	0xbca2715e	-0.019829448
12	0x3c471d9b	0.012153055
13	0xbc8cd8a9	-0.017193155
14	0xbc990eb6	-0.018683773
15	0xba8e8e54	-0.0010876157
16	0xbd05ce25	-0.032667298
17	0x3c60a179	0.013710373
18	0xbc77dc7a	-0.015128249
19	0x3c0796e8	0.008275725
20	0xbc976d1e	-0.018484648
21	0xbcfd05ed	-0.030886615
22	0xbcc5b3df	-0.02413362
23	0xbcaa3f7a	-0.020782221
24	0x3c017eda	0.007903779
25	0x3ca8d87d	0.020611042
26	0xbcb0502c	-0.021522604
27	0x3cd4f275	0.025994519
28	0xbc243e30	-0.010024592
29	0x3be75ece	0.007060862
30	0xbc5f60ee	-0.01363395
31	0x3c8d9c6a	0.017286498
32	0x3cc45f6c	0.023971282
33	0xbc83a466	-0.016069602
34	0xbc91f05f	-0.017814813
35	0xbd0e8c38	-0.03480169
36	0xbcf14951	-0.029453905
37	0x3baf92a4	0.005358057
38	0xbc1bed72	-0.009517061
39	0x3cc0662f	0.023486225
40	0x3c40a4b8	0.011758022
41	0xbc162303	-0.009163621
42	0x3caee01e	0.021347102
43	0x3b5b1082	0.0033426587
44	0xbcd60f02	-0.026130203
45	0xbd52d766	-0.05147495
46	0xbcf2b868	-0.029628947
47	0xbbf03509	-0.007330541
48	0x3c5d6bc6	0.013514465
49	0xbc52d38e	-0.012867821
50	0x3acc1508	0.0015570233
51	0xbcc8af82	-0.024497751
52	0x3d0ea391	0.034823958
53	0x3b9c95c5	0.004778596
54	0xbc592132	-0.013252543
55	0xbadcd44e	-0.001684794
56	0xbbaa24b7	-0.005192365
57	0x3c0c4617	0.008561633
58	0x3d0ce320	0.03439629
59	0x3baebcd4	0.0053325687
60	0x3cccb361	0.024987878
61	0x3b98048c	0.004639214
62	0x3ac5bb35	0.0015085699
63	0x3b9e4e64	0.0048311222

cnn.2.weight f4 [64]
0	0x3d84eafb	0.064901315
1	0x3e0431df	0.1290965
2	0x3dc69335	0.09696046
3	0x3db7614b	0.08954104
4	0x3d567da7	0.052365925
5	0x3d825e84	0.06365684
6	0x3da916df	0.082563154
7	0x3d9bf842	0.07615711
8	0x3d665bbf	0.05623984
9	0x3d9dddab	0.077082954
10	0x3d984637	0.074352674
11	0x3d8d87d1	0.069106705
12	0x3dab00c3	0.08349755
13	0x3d83d09d	0.06436274
14	0x3d8a3964	0.06749228
15	0x3d6912c8	0.056902677
16	0x3d8e9845	0.06962637
17	0x3da9abc3	0.08284714
18	0x3d57fdc2	0.052732237
19	0x3dafeb4f	0.085898034
20	0x3dcf5ae7	0.1012476
21	0x3e2c799b	0.16843264
22	0x3dfdf00d	0.12399302
23	0x3d8df761	0.069319494
24	0x3d895763	0.06706121
25	0x3daa8d55	0.08327738
26	0x3d863946	0.06553893
27	0x3e03205d	0.12805314
28	0x3dca246f	0.098702304
29	0x3d8724da	0.06598826
30	0x3dbfd994	0.093676716
31	0x3dcdc924	0.1004813
32	0x3dca0ad7	0.09865349
33	0x3dae9f35	0.0852646
34	0x3dbce18e	0.09222709
35	0x3db54f6c	0.08853039
36	0x3d3ea306	0.04654219
37	0x3db611fe	0.088901505
38	0x3d773011	0.060348574
39	0x3e29ebbe	0.16593835
40	0x3d9c5608	0.07633597
41	0x3d72d96e	0.05928939
42	0x3dd7a63a	0.10529752
43	0x3dc7cb6c	0.097555965
44	0x3d4369eb	0.047708433
45	0x3d71d617	0.059042063
46	0x3e1c73c6	0.15278539
47	0x3dbc3454	0.09189668
48	0x3db8d6a2	0.09025313
49	0x3d8c3380	0.0684576
50	0x3d800a56	0.062519714
51	0x3d9b24fc	0.075754136
52	0x3df35374	0.11881152
53	0x3e0c3203	0.13690953
54	0x3dae1b37	0.085012846
55	0x3d8f94d6	0.0701081
56	0x3d897669	0.06712038
57	0x3d77ab00	0.060465813
58	0x3e0eb94c	0.13937873
59	0x3d968f28	0.07351524
60	0x3d57eeea	0.05271808
61	0x3dbb6700	0.09150505
62	0x3d59ae09	0.05314449
63	0x3e01b81a	0.12667885

cnn.2.bias f4 [64]
0	0xb9f61563	-0.0004693671
1	0xbb3065e7	-0.0026916207
2	0x3b1ec520	0.0024226382
3	0x3af92b28	0.0019010054
4	0xbb1d6b71	-0.002402034
5	0x3a94d3c3	0.0011354614
6	0xbb2246e4	-0.0024761492
7	0xb9dd2b9c	-0.00042184896
8	0xbb0892bd	-0.0020839416
9	0x3b5e4631	0.003391635
10	0xbb073213	-0.0020629212
11	0x3ad03a0f	0.0015886443
12	0x3b3f929f	0.002923168
13	0xbae5ad5f	-0.0017522982
14	0xbb0b8a87	-0.0021292286
15	0x39d1ff28	0.00040053693
16	0xba486c07	-0.0007645492
17	0xbaa0eadb	-0.0012277024
18	0x39898382	0.00026228657
19	0x39f9a4eb	0.00047615854
20	0xbb7dd9ff	-0.0038734672
21	0xbb8d7069	-0.004316379
22	0x3a15a66c	0.0005708698
23	0x3a2f7133	0.0006692588
24	0xba3ab591	-0.00071223924
25	0xbb0dbefe	-0.0021628733
26	0x393f91fa	0.0001826956
27	0x3ae85cdb	0.0017727868
28	0x3affe3b8	0.0019522822
29	0xbaa4cbd6	-0.0012572955
30	0xbb853f56	-0.004066388
31	0x3ad50ce3	0.0016254451
32	0x3ac4cb32	0.001501417
33	0xbb680a0f	-0.0035406386
34	0x392b001c	0.00016307872
35	0x3b5183a4	0.0031969333
36	0x39243f8d	0.00015663933
37	0xba97def0	-0.0011586826
38	0x3a99abb9	0.0011724151
39	0x3bb60a56	0.0055554314
40	0xba3aecb4	-0.00071306084
41	0x3a05013b	0.0005073731
42	0x3a341fc9	0.00068711914
43	0xba4cee05	-0.000781745
44	0x3a2f2f4d	0.00066827686
45	0xba77ed12	-0.00094576285
46	0x3b3853f4	0.0028126212
47	0xb93dc023	-0.00018096021
48	0xbb03e66d	-0.0020126358
49	0x3a87726d	0.0010333784
50	0x3b3dc803	0.0028958328
51	0xbacaaf15	-0.0015463555
52	0x3ae8cedf	0.0017761848
53	0xba69da6c	-0.0008920792
54	0x3aef290f	0.0018246489
55	0x3a3f7c3e	0.00073045853
56	0x3b0d3e49	0.0021552017
57	0x3a1c1a96	0.00059548893
58	0x3b295ec9	0.002584385
59	0xbae6a055	-0.001759539
60	0x3b22d8e1	0.0024848508
61	0xbabe964b	-0.001454064
62	0xb93cd549	-0.00018008532
63	0xbae4bb0c	-0.0017450764

cnn.2.running_mean f4 [64]
0	0xb90e6d5f	-0.00013582919
1	0xbba2ccda	-0.004968268
2	0xbb20d528	-0.0024541114
3	0x3c4e039b	0.012574102
4	0x3ae3c063	0.0017376061
5	0xbbbb3c23	-0.005713956
6	0xbaae32cf	-0.0013290289
7	0x3ae857fa	0.0017726414
8	0xbafbd888	-0.0019214312
9	0xba9c7824	-0.001193766
10	0x3c2325cd	0.009957743
11	0xbb9010aa	-0.0043965178
12	0x3c065245	0.0081983255
13	0xbb04d16b	-0.0020266424
14	0xba9a703b	-0.0011782715
15	0x3aafa852	0.0013401604
16	0xbbaea305	-0.005329492
17	0x3c30391b	0.0107558025
18	0xbb7cdb84	-0.003858299
19	0x3c0c4e0a	0.008563528
20	0xbb40155b	-0.0029309604
21	0xbb74ff84	-0.0037383744
22	0xbb819a99	-0.003955197
23	0xbbb1bba4	-0.00542398
24	0x3c321cef	0.010871156
25	0x3ca7074d	0.020389223
26	0xbb967418	-0.004591476
27	0x3cb7ed62	0.02245206
28	0xba6227a5	-0.00086271233
29	0x3c1f130a	0.009709129
30	0xb9903cb7	-0.00027511056
31	0x3c9baaae	0.019002285
32	0x3c96ddd9	0.018416332
33	0xbadbe052	-0.0016775227
34	0xbb3ef1c4	-0.0029135803
35	0xbbfd24e2	-0.007725344
36	0xbbc2de4e	-0.005946911
37	0x3c246ae0	0.010035247
38	0xbb15e1cc	-0.002287018
39	0x3c9cc73a	0.019137967
40	0x3c3b2f32	0.011424826
41	0xba384d46	-0.00070305576
42	0x3cbbfd20	0.022947848
43	0x3bcb29b8	0.0062000416
44	0xbba7927c	-0.005113898
45	0xbc268059	-0.010162436
46	0xbbbada9c	-0.00570233
47	0xbb0591a6	-0.0020381003
48	0x3c7672bf	0.015042006
49	0xbb0373e1	-0.0020058083
50	0x3a2087ac	0.00061237323
51	0xbb43d907	-0.0029883997
52	0x3ceb9dc9	0.028761761
53	0x3c4c4400	0.012467384
54	0xbb73d668	-0.0037206654
55	0x3b956619	0.00455929
56	0xbaf32a2a	-0.0018551995
57	0x3c1f8ec9	0.0097386325
58	0x3cd80752	0.026370678
59	0x3be62107	0.00702298
60	0x3cc1239a	0.023576546
61	0x3bf0adfa	0.0073449584
62	0x3c28972f	0.010289951
63	0x3c183650	0.009290293

cnn.2.running_var f4 [64]
0	0x37866789	1.6022257e-05
1	0x373dcf9f	1.1313618e-05
2	0x3661d571	3.3651852e-06
3	0x3852c54d	5.0251652e-05
4	0x37940e9b	1.7649776e-05
5	0x35ef72ad	1.7840263e-06
6	0x371c0d5e	9.301437e-06
7	0x37766e55	1.4688431e-05
8	0x3785e7dd	1.5962805e-05
9	0x3582e42a	9.752159e-07
10	0x3903898a	0.00012544371
11	0x3556c987	8.0014473e-07
12	0x3803bd00	3.1408854e-05
13	0x36bdac21	5.6526774e-06
14	0x379ce8ed	1.8705114e-05
15	0x37acd4a7	2.0603022e-05
16	0x3695c063	4.462943e-06
17	0x381da494	3.7584992e-05
18	0x35b39552	1.3379997e-06
19	0x38c7e9f7	9.532639e-05
20	0x3598cd31	1.1384601e-06
21	0x37845213	1.5773845e-05
22	0x37e3dc0d	2.7162978e-05
23	0x366e518d	3.5512232e-06
24	0x3845ab51	4.712801e-05
25	0x3953e0e9	0.00020206314
26	0x361030fe	2.148619e-06
27	0x3947f462	0.00019069159
28	0x377a8bd8	1.4933721e-05
29	0x3885d791	6.3820866e-05
30	0x37acf65a	2.0618714e-05
31	0x38ac250f	8.208502e-05
32	0x3866c896	5.5023083e-05
33	0x36d89e9e	6.455767e-06
34	0x36cab076	6.040612e-06
35	0x3604ecce	1.9807371e-06
36	0x362b0056	2.5481181e-06
37	0x384278d7	4.6365745e-05
38	0x35d837fa	1.6109545e-06
39	0x385a773f	5.2086307e-05
40	0x381d4063	3.749168e-05
41	0x3774d885	1.4593946e-05
42	0x38ba1a44	8.8740635e-05
43	0x3888aef6	6.5175744e-05
44	0x36295b64	2.5236159e-06
45	0x36810ff8	3.8463586e-06
46	0x36c5c18a	5.8935884e-06
47	0x363092b8	2.6311445e-06
48	0x38b28d97	8.5140746e-05
49	0x361ddc99	2.3523228e-06
50	0x36faa0fb	7.469321e-06
51	0x370b6bdc	8.310159e-06
52	0x3891399d	6.92487e-05
53	0x38ca569a	9.6482414e-05
54	0x36d206fe	6.2593017e-06
55	0x389bb91a	7.425454e-05
56	0x3597b4ca	1.1302993e-06
57	0x37d47e4a	2.5331177e-05
58	0x38edf3c7	0.00011346448
59	0x380af2d4	3.3127915e-05
60	0x38fd9d25	0.000120932506
61	0x386c3209	5.6313384e-05
62	0x3928bc57	0.0001609189
63	0x3860a3f2	5.3558448e-05

cnn.3.weight f4 [64, 64, 3]
0	0x3b0a5eff	0.002111375
1	0xbc37fab5	-0.011229207
2	0xbb31e4e4	-0.0027144486
3	0xbbc81cb6	-0.0061069382
4	0x3c6398e6	0.013891434
5	0x3c32237b	0.010872717
6	0x3c077471	0.008267508
7	0x3bc148b5	0.00589856
8	0xbac49ede	-0.0015000959
9	0xbbff5610	-0.007792242
10	0x3b090bab	0.0020911496
11	0x3932fdd8	0.00017069967
12	0x3c3a0c61	0.01135549
13	0xbc1269fc	-0.008936401
14	0x3b7609b1	0.0037542398
15	0x3b8d1cdb	0.0043064184
16	0x3b3d07f7	0.0028843859
17	0xbae532e8	-0.0017486485
18	0x3ae7d01e	0.0017685925
19	0xbb5de88b	-0.003386053
20	0x3c02e0e8	0.007988192
21	0xbbfa78ef	-0.007643811
22	0xb99138f2	-0.00027698983
23	0x3b692d1a	0.003557986
24	0x3b339734	0.0027403357
25	0xbbbbda11	-0.0057327827
26	0xbbcbb987	-0.006217185
27	0x3bb789ce	0.0056011444
28	0xbbd1aeb5	-0.0063990005
29	0xbb2681c0	-0.0025406927
30	0x3bec3f23	0.007209675
31	0x3bb9e035	0.0056724795
32	0x3aee3c64	0.0018175957
33	0xbb33b79b	-0.002742267
34	0xbbc58a65	-0.006028461
35	0xbb3e78b7	-0.002906365
36	0x3c122621	0.008920223
37	0x3bf4ba50	0.0074684992
38	0xbbaef8ed	-0.005339733
39	0x3c313c40	0.010817587
40	0x39375b7a	0.00017486318
41	0x3bdba7c0	0.006703347
42	0xbaa54757	-0.0012609762
43	0x3b7b3bcc	0.0038335202
44	0x3c0f151b	0.008733059
45	0x390dd7af	0.00013527156
46	0xbc0befa0	-0.008541018
47	0xbb791636	-0.0038007624
48	0xbb923411	-0.004461773
49	0x399f7081	0.00030410665
50	0x3b76a008	0.0037632007
51	0x3c8a3814	0.016872443
52	0x3c3299be	0.010900913
53	0xbb804f44	-0.003915699
54	0x38c45ebe	9.3636554e-05
55	0x3aa747c1	0.0012762473
56	0xbb3a0b72	-0.002838817
57	0xb926ff06	-0.00015925997
58	0xbb2b8c79	-0.0026176258
59	0xbbb9f03e	-0.005674391
60	0xbc3daa64	-0.011576269
61	0xbb4ec593	-0.003155087
62	0x3baf30e2	0.0053464035
63	0xbc0eaca0	-0.008708149
64	0x3ba79081	0.0051136618
65	0x3c105bf6	0.008810988
66	0x3c00daca	0.007864663
67	0x3bcbd284	0.006220164
68	0x3b964df9	0.004586932
69	0x3bc37a8e	0.0059655374
70	0x3afe708f	0.0019412207
71	0xbba848d1	-0.0051356335
72	0xbbe263cf	-0.006908871
73	0xbb8adc1d	-0.0042376653
74	0x3b92adb8	0.0044762753
75	0x3aa28f1c	0.0012402269
76	0xbb97d9b3	-0.004634106
77	0x3b26563e	0.0025380994
78	0x3b01b890	0.0019793846
79	0xbb825ab6	-0.0039780987
80	0xbb048f02	-0.002022684
81	0xbb86dc51	-0.004115619
82	0xbb2c4e8b	-0.0026291932
83	0xbc2fc16b	-0.010727267
84	0xbab6f665	-0.0013958929
85	0xbc09f7a2	-0.008420857
86	0xbb28f8c7	-0.0025783048
87	0x3b3aed31	0.0028522725
88	0xbb2fa8ef	-0.0026803573
89	0x3badd0cc	0.0053044315
90	0x3c5b409f	0.013382106
91	0x3a265b8f	0.0006346041
92	0x3c1eb700	0.009687185
93	0x3b4f9918	0.0031676944
94	0xbc246b09	-0.010035285
95	0x398f3d39	0.000273207
96	0x3c2c219d	0.010506061
97	0xbc6be51d	-0.014397887
98	0xbbcd0f37	-0.0062579173
99	0x3c349942	0.011022868
100	0xbb346d68	-0.0027531032
101	0x3bf152fe	0.00736463
102	0xbb86c5fd	-0.0041129575
103	0xb9e98526	-0.00044540426
104	0xbb15be3b	-0.0022848982
105	0x3c044b0b	0.008074532
106	0xbc24f60c	-0.010068428
107	0xbb84d419	-0.0040536043
108	0xbb785f57	-0.0037898624
109	0xbb2b828d	-0.0026170344
110	0xbadf1dad	-0.0017022394
111	0x3c4c9435	0.012486507
112	0xbc0490a8	-0.008091129
113	0x3c08ce7a	0.008350009
114	0x3bf8bd02	0.007590891
115	0x3b7a2232	0.0038167355
116	0xbaac33f1	-0.0013138038
117	0xbb86059a	-0.004090023
118	0xbaf5175c	-0.0018698978
119	0xbc49a62c	-0.012307685
120	0x3a86da35	0.001028842
121	0xbb905ed4	-0.0044058356
122	0xbbc86575	-0.0061156102
123	0x3b5e0b08	0.0033881087
124	0x39be3b80	0.00036283955
125	0x3ad062d6	0.0015898596
126	0x3c1feab2	0.009760546
127	0xbc225806	-0.009908682
128	0x3b99775e	0.004683419
129	0xbc017275	-0.007900824
130	0x3bc27291	0.0059340675
131	0x3bcfd515	0.00634254
132	0x3a2c5967	0.0006574601
133	0xbbaa17dc	-0.0051908325
134	0xb9d0cde6	-0.00039826258
135	0x3b05bbeb	0.0020406197
136	0xbb27e216	-0.0025616935
137	0xbb3654b6	-0.0027821488
138	0xbb6f7727	-0.0036539526
139	0x3bcce8f2	0.006253355
140	0x3b549bd6	0.0032441518
141	0xbbd71203	-0.0065634265
142	0x3bce668e	0.0062988466
143	0xbb7d40f2	-0.0038643447
144	0x3bd9cb9b	0.006646586
145	0xbc447d77	-0.011992804
146	0xbb2d9a07	-0.0026489513
147	0xbbc42652	-0.0059860134
148	0xbc183d82	-0.009292008
149	0x3b087b92	0.0020825607
150	0xbc865354	-0.016397156
151	0xbbf81fda	-0.0075721564
152	0xbb8df6b0	-0.004332386
153	0x3c56a853	0.013101655
154	0xbb54ac23	-0.0032451234
155	0x3bb9104d	0.005647695
156	0x3b9b43dd	0.0047383145
157	0x3c661639	0.014043384
158	0xbc38e48c	-0.011284959
159	0xbadafe2c	-0.0016707829
160	0x3ba9a02b	0.005176564
161	0x3c3ceeb3	0.01153152
162	0x39b9d7a9	0.0003544663
163	0xbb2f50eb	-0.0026751112
164	0xbba0b316	-0.004904161
165	0xbb31e093	-0.0027141913
166	0x3c1e5e64	0.009666059
167	0x3bd4814e	0.006485141
168	0xbc519ef1	-0.012794242
169	0xbc074b93	-0.008257764
170	0xbb38cd43	-0.0028198517
171	0xbba4c174	-0.005027944
172	0x3b28f60b	0.0025781419
173	0xba079c1e	-0.00051731046
174	0xbc3f2235	-0.01166587
175	0x3bb5ae2a	0.0055444436
176	0xbc101b49	-0.008795568
177	0xbb9d3947	-0.0047980878
178	0xbbfcc5ad	-0.0077139945
179	0x3b838425	0.0040135556
180	0x3bce3a1b	0.006293548
181	0x3b381228	0.0028086994
182	0xb9a187bb	-0.0003080944
183	0x3bf5be25	0.0074994736
184	0x3beef13a	0.00729194
185	0x3be7cc10	0.0070738867
186	0xbb7336d9	-0.003711155
187	0x3b537f05	0.0032271754
188	0x3ba94d0a	0.0051666545
189	0xba0f2bff	-0.0005461573
190	0xbc13d429	-0.009022751
191	0x3c229377	0.009922854
192	0x3bea4575	0.007149393
193	0xbc3fad5a	-0.011699045
194	0xbbc174a0	-0.0059037954
195	0x3b0d6aba	0.0021578507
196	0xbaff3185	-0.0019469714
197	0xbc129f89	-0.008949169
198	0xbc2058e4	-0.009786818
199	0xbc32ea21	-0.0109200785
200	0x3c5c12f3	0.013432252
201	0x3c0e0974	0.008669246
202	0x3bd66ecc	0.0065439697
203	0x3bf043fb	0.0073323227
204	0x3c143df1	0.009047971
205	0x3b921325	0.0044578486
206	0xbc8a7311	-0.016900571
207	0x3bd8b55a	0.0066134157
208	0xbc561a81	-0.013067842
209	0xbb130420	-0.0022432879
210	0xba5cc505	-0.0008421692
211	0xbb5140d2	-0.0031929505
212	0x3aeb1913	0.001793655
213	0xb9910651	-0.0002766126
214	0xbadf6dc3	-0.0017046261
215	0x3c8f4aa7	0.017491652
216	0xbb831ade	-0.0040010056
217	0xbb80e7fb	-0.003933904
218	0x3b6c9a89	0.0036102852
219	0xb7686a3f	-1.3853015e-05
220	0x3b7c8e93	0.003853713
221	0x3c48c0db	0.012253012
222	0x3c79e661	0.0152526805
223	0xbc1232c1	-0.0089232335
224	0xbb87a004	-0.0041389484
225	0xbad42ae9	-0.0016187105
226	0x3c983a61	0.018582525
227	0xbb617e35	-0.00344075
228	0xbbb10fa4	-0.005403476
229	0x3c47c9b7	0.012194089
230	0x3a9d057b	0.0011979783
231	0x3be075e7	0.0068499926
232	0xb948cb82	-0.00019149299
233	0x39f1ac5e	0.00046095526
234	0x3c8c4743	0.017123824
235	0xbc0c70c0	-0.008571804
236	0xbb84ce9d	-0.0040529505
237	0x3b68695a	0.0035463185
238	0x3b978262	0.004623697
239	0xbba6b076	-0.0050869538
240	0xba93fb34	-0.0011290074
241	0xbc562353	-0.013069945
242	0x3b12894b	0.0022359665
243	0xbc5bd62d	-0.013417763
244	0x3bb1f5c9	0.005430911
245	0xbbe04760	-0.006844446
246	0xbba26fc6	-0.004957172
247	0x3c5e6717	0.013574383
248	0x3a515ebe	0.0007986835
249	0x3be53426	0.006994742
250	0xbba3774c	-0.0049885865
251	0xba9d8861	-0.0012018793
252	0x3bee8ed6	0.007280211
253	0xbb7a9d6a	-0.0038240799
254	0xbc79c7d3	-0.015245396
255	0xb845117f	-4.6984755e-05

cnn.3.bias f4 [64]
0	0xbbcfc733	-0.006340885
1	0x3b94d5d9	0.004542094
2	0xbc759664	-0.014989469
3	0xbc95f878	-0.018306956
4	0x3b8d7a7c	0.00431758
5	0xbd27e7be	-0.04099249
6	0xbb2396bf	-0.0024961678
7	0xbcfa5834	-0.030559637
8	0xbb289c1c	-0.0025727814
9	0x3a3b0402	0.0007134081
10	0xbbf20b6e	-0.0073866164
11	0xbb64be59	-0.0034903495
12	0xbb7c341a	-0.0038483203
13	0xb9f88cc4	-0.00047407125
14	0xbaf6b1e7	-0.001882133
15	0xbaddfba2	-0.0016935954
16	0x3c1672b1	0.009182618
17	0xbb0976da	-0.0020975382
18	0xbb1dbd23	-0.0024069033
19	0xbc406ad1	-0.011744217
20	0xbb88e8e6	-0.0041781543
21	0xbaa3822d	-0.0012474708
22	0xb96b5dd0	-0.00022446294
23	0xb7e9179c	-2.7786758e-05
24	0xbaabee47	-0.0013117277
25	0xbaff710f	-0.001948865
26	0xba78bf7c	-0.00094889826
27	0xbbaef2d0	-0.005339004
28	0xbbbad1b4	-0.005701268
29	0xbb391a1e	-0.0028244327
30	0xbb632b18	-0.0034663137
31	0x3b1af2fc	0.0023643365
32	0xbc1cf78a	-0.009580502
33	0xbc355a3f	-0.01106888
34	0x3aa03a2b	0.0012224367
35	0xbb8514b3	-0.0040613054
36	0xbb0aae0c	-0.002116087
37	0xbb152629	-0.002275834
38	0xbb83d9c2	-0.0040237615
39	0xba1d3df2	-0.0005998305
40	0xbba377bc	-0.0049886387
41	0xbc1be488	-0.009514935
42	0xbaa89723	-0.0012862425
43	0xbb4f7b2a	-0.0031659105
44	0xbaa13007	-0.0012297638
45	0xbb23edfb	-0.0025013674
46	0xbaea5475	-0.0017877953
47	0xbc1a2a57	-0.009409509
48	0xbb2f5f9a	-0.0026759864
49	0x3b829d87	0.003986064
50	0xba05e487	-0.00051076006
51	0xbaf436d3	-0.0018632062
52	0xbb47b3bc	-0.003047212
53	0xbb0ca6e6	-0.0021461784
54	0xbb569d2d	-0.0032747493
55	0xbb4d619a	-0.0031338693
56	0xbaa8ccfb	-0.0012878472
57	0xbbc9623f	-0.006145745
58	0xba688d38	-0.0008871141
59	0xbb50ec82	-0.003187925
60	0xbb3667da	-0.0027832896
61	0xbad31650	-0.0016104672
62	0x3b766f2a	0.003760288
63	0xbb8bb9dd	-0.0042641

cnn.5.weight f4 [64]
0	0x3e0233d8	0.1271509
1	0x3e84eadc	0.25960433
2	0x3e266bf9	0.16252126
3	0x3e374f3a	0.17901316
4	0x3dcc9ca2	0.09990813
5	0x3e729779	0.23690595
6	0x3daad4d7	0.08341377
7	0x3dbd2145	0.09234861
8	0x3d8cb2c4	0.06870034
9	0x3d4ed1a0	0.050492883
10	0x3dcd29bd	0.100177266
11	0x3dfe2d9f	0.12411045
12	0x3e0527ce	0.13003466
13	0x3dfd2e4d	0.12362347
14	0x3d91d7ce	0.071212396
15	0x3d280e33	0.041029166
16	0x3df3dbe6	0.11907177
17	0x3d9eb65a	0.077496246
18	0x3df4968e	0.119427785
19	0x3e5314c7	0.20613395
20	0x3ddcbc5d	0.10778115
21	0x3e1dfff9	0.15429677
22	0x3db383fe	0.0876541
23	0x3e0e3ed0	0.13891149
24	0x3e2bef59	0.16790523
25	0x3d59e227	0.05319419
26	0x3db1ddbd	0.08684871
27	0x3e30a0ab	0.1724879
28	0x3d7dcb5f	0.061961528
29	0x3dadc1f6	0.08484261
30	0x3da3214b	0.079653345
31	0x3e11faf0	0.14255881
32	0x3e49cbc1	0.19706632
33	0x3e80e10b	0.25171694
34	0x3d999397	0.07498854
35	0x3dee884e	0.11647092
36	0x3de67674	0.11253062
37	0x3da6e6ad	0.08149467
38	0x3e0d523d	0.13800903
39	0x3dc0d933	0.094164275
40	0x3e037b3c	0.12839979
41	0x3e33a6dd	0.17544122
42	0x3d9daa38	0.07698482
43	0x3db03c29	0.08605225
44	0x3da57c9e	0.080804095
45	0x3dcdb226	0.10043745
46	0x3d9b1969	0.07573206
47	0x3e2a0a46	0.16605482
48	0x3de5369b	0.11192056
49	0x3d7602e2	0.060061343
50	0x3d617fe7	0.055053618
51	0x3d8d4d4b	0.06899508
52	0x3dc195ab	0.09452375
53	0x3d96533f	0.07340097
54	0x3e550f77	0.2080668
55	0x3e502071	0.20324875
56	0x3d8c1ed4	0.068418175
57	0x3e2cc94d	0.16873665
58	0x3d5f803f	0.054565664
59	0x3d95e427	0.07318907
60	0x3d9f54a5	0.077798165
61	0x3dcc435b	0.099737845
62	0x3db85ab1	0.09001673
63	0x3dfb1092	0.1225902

cnn.5.bias f4 [64]
0	0xbcaa35b7	-0.020777566
1	0x3a9cb4ec	0.0011955774
2	0x3d8bf17e	0.0683317
3	0xbd0b6db3	-0.034040164
4	0x3c642373	0.013924467
5	0x3da8cbad	0.08241973
6	0xbb56689c	-0.003271616
7	0x3d5b6c51	0.053570095
8	0xbb9dac30	-0.004811786
9	0xbbd5abd8	-0.0065207295
10	0xbc00e6be	-0.007867513
11	0x3bf3de4e	0.0074422723
12	0x391fe760	0.00015249616
13	0xb980f18f	-0.00024594038
14	0x38156a0a	3.5623125e-05
15	0x3afe1fbf	0.0019388123
16	0x3be255e1	0.00690721
17	0xb7845607	-1.5775686e-05
18	0xbbfef04f	-0.007780112
19	0x3b03be1e	0.0020102332
20	0xbba581f8	-0.005050894
21	0xbc5cc0ef	-0.013473733
22	0xbcbf0ee1	-0.023322525
23	0x3b3eeafd	0.0029131763
24	0xbc7823df	-0.015145271
25	0x39cbd64c	0.0003887884
26	0xbc242005	-0.0100174
27	0xba85c649	-0.0010206188
28	0xbc031665	-0.008000945
29	0x3a60a14c	0.0008568957
30	0x3c0cfed2	0.008605676
31	0xbc3dde11	-0.011588589
32	0x3c35836b	0.011078696
33	0x3c3f6c81	0.011683584
34	0xbc15abfe	-0.009135244
35	0xbc22934b	-0.009922813
36	0xbba5b02d	-0.005056402
37	0xb99b35e9	-0.0002960407
38	0x3689ef50	4.110778e-06
39	0x39970317	0.00028803266
40	0x3b56973a	0.0032743947
41	0x3c2d0548	0.010560341
42	0xb9ebcb90	-0.0004497436
43	0xbaf1552a	-0.0018412222
44	0xbc091f59	-0.00836929
45	0xbb4cebad	-0.0031268403
46	0x3986ec57	0.0002573456
47	0x3c467f55	0.012115319
48	0xbb95f9af	-0.0045768837
49	0xba32eb8d	-0.0006825261
50	0xb90991e6	-0.0001311969
51	0xbb9862b3	-0.0046504377
52	0x3c1f141a	0.009709382
53	0xba77d4f6	-0.0009454036
54	0xbc530f01	-0.012881995
55	0xbb003292	-0.0019561392
56	0xbafddbd0	-0.0019367877
57	0xbb3378ec	-0.0027385307
58	0xb98d0c79	-0.0002690291
59	0x39ca7b82	0.00038620463
60	0xbc004120	-0.007828027
61	0xbc2ce77d	-0.010553238
62	0xbbf9c8f2	-0.0076228315
63	0xbc3c57d0	-0.0114955455

cnn.5.running_mean f4 [64]
0	0x3b369e4e	0.0027865353
1	0x3c415e85	0.01180232
2	0x3b4d8fa3	0.0031366132
3	0x3a9d0319	0.0011979073
4	0x3c231ef7	0.009956113
5	0xbbba8a36	-0.0056927456
6	0xb9bdcd34	-0.00036201777
7	0xbb8acdca	-0.0042359577
8	0xba09b092	-0.0005252446
9	0x3b2d4237	0.0026437172
10	0xb9b98f9f	-0.00035392956
11	0xb87f8236	-6.0918006e-05
12	0xba4eeddb	-0.00078937196
13	0x3b0694c4	0.0020535449
14	0x39fb4799	0.00047927795
15	0xb9b3288e	-0.00034171756
16	0x3c304707	0.010759122
17	0xb97bceca	-0.0002401426
18	0x3af39c9b	0.0018586101
19	0xbb1a9472	-0.0023587015
20	0xba32ed67	-0.0006825537
21	0x3b506998	0.003180122
22	0x3b7b29f7	0.0038324574
23	0x3ab48456	0.0013772349
24	0x3b48d373	0.0030643612
25	0xb9ceb0eb	-0.00039423196
26	0x3aeaa64d	0.0017902345
27	0xba873ab3	-0.0010317176
28	0xba4d7bab	-0.00078385574
29	0xba0f5165	-0.0005467146
30	0x3ab2eb0a	0.0013650369
31	0x3bb62ff5	0.005559916
32	0xbad600d8	-0.0016327156
33	0xbaa52ac9	-0.0012601252
34	0x3b1eef90	0.0024251677
35	0xba5860f5	-0.0008254194
36	0xb9805d25	-0.0002448346
37	0xb9c56050	-0.00037646526
38	0xba42d6e6	-0.0007432535
39	0xb8de6140	-0.00010603899
40	0x3942e689	0.00018587163
41	0xba7ab358	-0.00095634675
42	0xb98b18e2	-0.00026530685
43	0x398ae4d9	0.00026491916
44	0x3affd19c	0.0019517425
45	0xb977af72	-0.00023621114
46	0x3a0755c9	0.00051626243
47	0xb973bd1e	-0.00023244738
48	0xba0f2249	-0.0005460126
49	0x3b86fe28	0.0041196533
50	0xb8e7c1f9	-0.000110510686
51	0x3acb2daf	0.0015501286
52	0x3a5e08be	0.00084699306
53	0xb99e3812	-0.00030177884
54	0x3ae21067	0.001724732
55	0x3a8c8d41	0.0010723249
56	0xb989c4ad	-0.0002627721
57	0xba8f1150	-0.0010915194
58	0xb91672bf	-0.00014347861
59	0xba2c001c	-0.00065612956
60	0xba0bc4f9	-0.00053317804
61	0x3b0d4520	0.0021556094
62	0x3b9e1901	0.004824758
63	0x3ac3cd0c	0.0014938428

cnn.5.running_var f4 [64]
0	0x39190955	0.00014594693
1	0x3958f865	0.000206919
2	0x39cbe6be	0.00038891094
3	0x39b89ff8	0.000352144
4	0x39070798	0.00012877432
5	0x396e961c	0.00022753369
6	0x352ffc25	6.55595e-07
7	0x38f35e09	0.00011604658
8	0x32a78ef8	1.9506373e-08
9	0x38056e33	3.1812302e-05
10	0x37d5390d	2.5418145e-05
11	0x3704ae6f	7.908427e-06
12	0x3352c60b	4.9074554e-08
13	0x37e62ff3	2.7440465e-05
14	0x3700e1a2	7.681929e-06
15	0x33484721	4.663082e-08
16	0x387ce43b	6.0294038e-05
17	0x357b0452	9.3511073e-07
18	0x38317d34	4.2316693e-05
19	0x35175224	5.6371414e-07
20	0x3569b4bd	8.706227e-07
21	0x38a651b5	7.930716e-05
22	0x38c95936	9.601044e-05
23	0x371c9864	9.333806e-06
24	0x38a962d8	8.076959e-05
25	0x32f901da	2.8988257e-08
26	0x38001c72	3.054407e-05
27	0x3557c410	8.037905e-07
28	0x36cad3b1	6.0447132e-06
29	0x3438a985	1.7198006e-07
30	0x3787209d	1.610844e-05
31	0x391bc5f9	0.00014855702
32	0x3728226c	1.0021595e-05
33	0x37f77319	2.9498291e-05
34	0x37c1e3d6	2.3113487e-05
35	0x32e225d8	2.6327072e-08
36	0x353ecae5	7.1075766e-07
37	0x3483de3b	2.4562345e-07
38	0x34eba5f6	4.3892913e-07
39	0x32c52dca	2.295464e-08
40	0x3790fe13	1.728445e-05
41	0x375f6bfc	1.3316978e-05
42	0x325c5f23	1.2827317e-08
43	0x372d8c9e	1.03443435e-05
44	0x381f0582	3.7913684e-05
45	0x35a29f69	1.2116335e-06
46	0x3703e783	7.8621115e-06
47	0x38353f29	4.3212585e-05
48	0x33ab5864	7.978886e-08
49	0x36ebac9e	7.023641e-06
50	0x316465b3	3.3236176e-09
51	0x3802146f	3.1013446e-05
52	0x378c17a9	1.6700318e-05
53	0x350bcab9	5.2076535e-07
54	0x384aebd9	4.8380203e-05
55	0x37de8f11	2.6531083e-05
56	0x313f12a6	2.7804758e-09
57	0x35ae1c7c	1.29723e-06
58	0x33702be4	5.5919273e-08
59	0x336e0366	5.5416784e-08
60	0x347870af	2.3137794e-07
61	0x382309fc	3.8871527e-05
62	0x38817382	6.172714e-05
63	0x38453ec9	4.7026933e-05

lstm_value.weight_ih_l0 f4 [512, 64]
0	0x363b9bc4	2.795584e-06
1	0x36893341	4.088885e-06
2	0xb6e9881e	-6.9597872e-06
3	0x36cbe7aa	6.0768407e-06
4	0xb6b0cc6a	-5.2690057e-06
5	0xb7157b22	-8.909761e-06
6	0xb48cf2a2	-2.625357e-07
7	0xb72b3998	-1.0205804e-05
8	0x344dd63d	1.9170052e-07
9	0x34f82a0f	4.62242e-07
10	0x349976da	2.8584947e-07
11	0x350ec666	5.318783e-07
12	0x340f7889	1.3361763e-07
13	0x35978eb7	1.1291912e-06
14	0x348f2be5	2.6667763e-07
15	0x32d428ac	2.4698544e-08
16	0xb38505f0	-6.194375e-08
17	0x34347592	1.6806578e-07
18	0x354704a8	7.414005e-07
19	0xb51693e4	-5.6094564e-07
20	0x35047e4c	4.935762e-07
21	0x35bfebbb	1.4299216e-06
22	0x3507107f	5.0315424e-07
23	0xb3cc8929	-9.5244395e-08
24	0x35de2fcb	1.6554199e-06
25	0xb33958c7	-4.315441e-08
26	0x35b72a01	1.3646787e-06
27	0xb46e91d7	-2.2218534e-07
28	0x343b1007	1.7421563e-07
29	0x33a5f053	7.727126e-08
30	0xb4832e66	-2.443441e-07
31	0x35a32c6a	1.2157373e-06
32	0xb213167c	-8.5616385e-09
33	0x359f3e41	1.1864541e-06
34	0x350df58c	5.288391e-07
35	0x3418b38f	1.4221426e-07
36	0x339fb7e2	7.4374626e-08
37	0x343920d2	1.7241408e-07
38	0xb32c8742	-4.0169887e-08
39	0x328b55b6	1.6220707e-08
40	0x32dd7dea	2.5785045e-08
41	0xb4bb21fc	-3.485619e-07
42	0xb094fa52	-1.0839563e-09
43	0x33e3c4e6	1.0606327e-07
44	0x35445dab	7.3151995e-07
45	0x340d8d1d	1.3182985e-07
46	0x35333a6f	6.676773e-07
47	0xb57a482c	-9.323728e-07
48	0xb3f6ac08	-1.148656e-07
49	0x3516b3df	5.61411e-07
50	0x320215ce	7.571954e-09
51	0x35140136	5.513606e-07
52	0x35973e5a	1.1268523e-06
53	0x3326f981	3.887681e-08
54	0x35a0bfc4	1.197674e-06
55	0x33b88b86	8.593547e-08
56	0x329ae893	1.8033722e-08
57	0x3572237f	9.020368e-07
58	0x325812f9	1.2577169e-08
59	0x33706708	5.597306e-08
60	0x3243e89b	1.1403382e-08
61	0x355c2f58	8.202528e-07
62	0xb409f974	-1.284987e-07
63	0x352c55fc	6.4200117e-07
64	0x38d4db89	0.00010149839
65	0x3ad4d9f5	0.0016239273
66	0xbad22c33	-0.0016034901
67	0x392775a0	0.0001597018
68	0xb7f739f8	-2.9471688e-05
69	0x3a6783d9	0.00088315975
70	0xb60358dc	-1.9572244e-06
71	0xb9965cd4	-0.00028679392
72	0x376ffba3	1.4304099e-05
73	0x35a799e9	1.2487263e-06
74	0x36a7a304	4.9959654e-06
75	0xb7310299	-1.0550627e-05
76	0x39a0c404	0.0003066362
77	0x35a74d56	1.2464977e-06
78	0xb98d6ca3	-0.00026974556
79	0xb4addcfa	-3.2384543e-07
80	0x38873f25	6.449063e-05
81	0xb6cadf40	-6.046059e-06
82	0x36041ce0	1.968634e-06
83	0xb6fd85e0	-7.5555727e-06
84	0x381c5c2f	3.727915e-05
85	0xb8da9cda	-0.00010424266
86	0x378d3485	1.6832966e-05
87	0x37a54681	1.9702364e-05
88	0x3738c4c9	1.1013072e-05
89	0xb669eb12	-3.4856535e-06
90	0xb8343627	-4.2965778e-05
91	0xb58080e7	-9.574259e-07
92	0xb61c93c7	-2.333183e-06
93	0xb87e078d	-6.056535e-05
94	0xb6842447	-3.93813e-06
95	0x374e6f20	1.230443e-05
96	0xb47f710d	-2.3789853e-07
97	0x36c5f1a8	5.89919e-06
98	0xb8966281	-7.170905e-05
99	0xb98b1761	-0.00026529565
100	0xb918f705	-0.00014587872
101	0xb401c636	-1.208617e-07
102	0xb5d762fb	-1.6047555e-06
103	0xb3366820	-4.246988e-08
104	0x3860a77b	5.356174e-05
105	0xb8082d3e	-3.2467062e-05
106	0x35e8d685	1.734778e-06
107	0x36ce973e	6.1568853e-06
108	0x35242421	6.1147335e-07
109	0x372cd337	1.0301176e-05
110	0xb7e0f8e8	-2.6818787e-05
111	0xb8c6078e	-9.442783e-05
112	0x3613625a	2.1961955e-06
113	0xb705172a	-7.932811e-06
114	0x36831d66	3.9075267e-06
115	0xb5992b2c	-1.1411953e-06
116	0xb7197e3f	-9.148905e-06
117	0x35869b4f	1.0028979e-06
118	0x3721c59c	9.642357e-06
119	0x375d47f4	1.3189379e-05
120	0xb7be2f7a	-2.2671873e-05
121	0x34d7c4a0	4.0189934e-07
122	0xb6f12d27	-7.187616e-06
123	0xb739122e	-1.1031092e-05
124	0x36062b73	1.9992847e-06
125	0x39a42556	0.00031308335
126	0x36e40c6a	6.7963747e-06
127	0x353469d2	6.7209214e-07
128	0x384a0734	4.816726e-05
129	0x38c285fc	9.2755974e-05
130	0xb8e03138	-0.0001069032
131	0xb63c44d0	-2.8054237e-06
132	0x36cc808a	6.0946377e-06
133	0xb95564cb	-0.00020350811
134	0xb5d2e733	-1.5713507e-06
135	0xb8813908	-6.161822e-05
136	0x365e1cea	3.3097408e-06
137	0xb637e8fd	-2.7404742e-06
138	0xb71b9dd9	-9.275472e-06
139	0x37892f92	1.6353824e-05
140	0x370a1e4f	8.232498e-06
141	0x372ed8c2	1.0421676e-05
142	0xb756ca86	-1.2802548e-05
143	0x35dd4278	1.6485128e-06
144	0x37d2f09e	2.5145997e-05
145	0xb5f1da92	-1.8019512e-06
146	0xb784ffae	-1.5854686e-05
147	0x369313c2	4.3832415e-06
148	0x35d20bd8	1.5649666e-06
149	0x368d9524	4.2194897e-06
150	0xb7e71cd3	-2.7550768e-05
151	0xb79bb6d5	-1.8562578e-05
152	0xb85f9a7e	-5.3311225e-05
153	0xb3cde2a6	-9.5872835e-08
154	0xb6a20871	-4.828959e-06
155	0x37ab3184	2.0407846e-05
156	0xb6c466c7	-5.85322e-06
157	0x3611219f	2.1626254e-06
158	0x37b885f0	2.1996879e-05
159	0xb8206da6	-3.824909e-05
160	0x34e799f8	4.313913e-07
161	0xb852b96f	-5.02406e-05
162	0xb7cbf2de	-2.431258e-05
163	0x37252ac4	9.8447235e-06
164	0x36a4df46	4.9135733e-06
165	0x36df7ec7	6.6606767e-06
166	0x36deb24d	6.6368725e-06
167	0x34bf9484	3.5684582e-07
168	0x36eabd54	6.995784e-06
169	0x383f7f0a	4.5656263e-05
170	0x36114a1e	2.1649826e-06
171	0xb54ff10c	-7.746428e-07
172	0xb7c29dc5	-2.320007e-05
173	0x36cd070b	6.110296e-06
174	0x3601b1fb	1.9326096e-06
175	0xb84b8eb3	-4.853187e-05
176	0x3523c998	6.101559e-07
177	0x3831dfef	4.2408643e-05
178	0x355e8684	8.289719e-07
179	0xb70ae923	-8.279722e-06
180	0x370cecb8	8.399766e-06
181	0x36e8ad43	6.934309e-06
182	0xb81a1886	-3.67393e-05
183	0xb7ccf383	-2.4432089e-05
184	0x35d811a2	1.6098386e-06
185	0x3736ec57	1.09030725e-05
186	0x3527af9b	6.246789e-07
187	0x36578b56	3.21186e-06
188	0x36c5de6a	5.89695e-06
189	0x36fab9e0	7.4722193e-06
190	0xb81b53c4	-3.7032893e-05
191	0xb8364b62	-4.3462387e-05
192	0x3986c8a1	0.00025707952
193	0x3758c1f1	1.2919759e-05
194	0xb8cb4c37	-9.6939904e-05
195	0x39596a8c	0.00020734424
196	0xb80ff914	-3.432583e-05
197	0xb8cc95cb	-9.755379e-05
198	0xb516cef8	-5.6180534e-07
199	0xb8abcd0b	-8.1921076e-05
200	0x362c01f2	2.563113e-06
201	0x36d446ce	6.326335e-06
202	0x35ed2d38	1.7671036e-06
203	0x37da2ca8	2.600842e-05
204	0x36920dcd	4.3527457e-06
205	0x37f5c684	2.9298717e-05
206	0xb5984f90	-1.1348038e-06
207	0x35caebdd	1.5118818e-06
208	0x376f7788	1.4273341e-05
209	0x36153f3e	2.2239542e-06
210	0x37059bb8	7.963674e-06
211	0x35e1b891	1.6817522e-06
212	0x37678c18	1.3801291e-05
213	0x37c05d00	2.293149e-05
214	0xb58051ac	-9.560513e-07
215	0xb701909a	-7.722667e-06
216	0xb6d45e65	-6.3290813e-06
217	0xb506905c	-5.012896e-07
218	0x378e45ab	1.696016e-05
219	0x361e01b7	2.3544833e-06
220	0xb6c921b2	-5.9941895e-06
221	0x36707a42	3.583395e-06
222	0x370bf8d8	8.342984e-06
223	0xb6646c1a	-3.403757e-06
224	0x371633dc	8.952771e-06
225	0x3793bb99	1.7611123e-05
226	0xb5d0ed59	-1.5566285e-06
227	0x36e53b63	6.8316454e-06
228	0x365392a3	3.1526804e-06
229	0x36fe32a3	7.575685e-06
230	0x367d142e	3.7711684e-06
231	0x358bc0f2	1.0412462e-06
232	0x3700629f	7.6523565e-06
233	0x379532d6	1.7785856e-05
234	0x34689724	2.1661668e-07
235	0x35684ae4	8.6535715e-07
236	0xb6119aa6	-2.16967e-06
237	0x370a4536	8.241555e-06
238	0x375bfbe6	1.3112067e-05
239	0xb7d6ce94	-2.5606983e-05
240	0xb6a622ae	-4.9512228e-06
241	0x37de513a	2.6502286e-05
242	0x35882fa6	1.0146657e-06
243	0x36c9b5bc	6.0114235e-06
244	0x37a8c44b	2.0118567e-05
245	0x35870a3f	1.0061266e-06
246	0x357a3e44	9.3222866e-07
247	0xb6f49a3e	-7.289723e-06
248	0x34b81f2f	3.429536e-07
249	0x37b2b923	2.1305465e-05
250	0x356bcd07	8.7842676e-07
251	0x35c614ff	1.475826e-06
252	0x36a93471	5.0426975e-06
253	0x37a29ab6	1.9383948e-05
254	0xb7c33d10	-2.3274246e-05
255	0xb61d4ded	-2.3440182e-06
