quant_prediction/best_model_2.pth (torch, 871586 bytes, 24 tensors)

time_weights f4 [24]
000000 46 cb 5b 3b fb fd 36 3c b6 31 62 3c 0a 27 69 3c
       0.0033537908 0.011168952 0.013805797 0.014230499
000010 b5 06 32 3c c7 25 49 3c a7 7f 5e 3c 26 b0 4b 3c
       0.010865857 0.012277073 0.013580239 0.012432134
000020 a6 57 3d 3c c5 1f 32 3c a1 a1 52 3c b1 1d 62 3c
       0.011556542 0.010871832 0.012855918 0.013801024
000030 5e 7f 71 3c b7 9a 52 3c 3a 8d 41 3c 94 be 59 3c
       0.014739839 0.01285427 0.011813456 0.013290066
000040 6d c6 49 3c 5b 18 5a 3c d7 ba 72 3c b9 08 bb 3b
       0.012315375 0.013311471 0.014815054 0.005707827
000050 3f f8 ea bb 1b 81 73 bc 2c 73 23 bd d0 91 48 bd
       -0.0071707065 -0.014862324 -0.03990476 -0.048967183

pos_enc f4 [24, 8]
000000 00 00 00 00 00 00 80 3f 00 00 00 00 00 00 80 3f
       0.0 1.0 0.0 1.0
000010 00 00 00 00 00 00 80 3f 00 00 00 00 00 00 80 3f
       0.0 1.0 0.0 1.0
000020 a4 6a 57 3f 41 51 0a 3f 76 75 cc 3d 98 b8 7e 3f
       0.84147096 0.54030234 0.099833414 0.9950042
000030 57 d6 23 3c b9 fc 7f 3f 6d 12 83 3a f8 ff 7f 3f
       0.009999833 0.99995 0.0009999998 0.9999995
000040 b7 c7 68 3f 33 11 d5 be f8 6f 4b 3e a5 e5 7a 3f
       0.9092974 -0.41614684 0.19866931 0.9800666
000050 3e d4 a3 3c e5 f2 7f 3f 68 12 03 3b df ff 7f 3f
       0.019998666 0.9998 0.0019999985 0.99999803
000060 c3 81 10 3e 26 70 7d bf 6c 4e 97 3e ef 90 74 3f
       0.14112 -0.9899925 0.2955202 0.9553365
000070 1f b9 f5 3c 83 e2 7f 3f 92 9b 44 3b b5 ff 7f 3f
       0.0299955 0.99955004 0.0029999954 0.9999955
000080 cf bd 41 bf 30 55 27 bf d7 61 c7 3e a7 ca 6b 3f
       -0.7568025 -0.6536436 0.38941833 0.921061
000090 db cb 23 3d 94 cb 7f 3f 57 12 83 3b 7a ff 7f 3f
       0.039989334 0.9992001 0.003999989 0.999992
0000a0 10 7c 75 bf 2c 3c 91 3e 43 77 f5 3e 40 a9 60 3f
       -0.9589243 0.2836622 0.47942552 0.87758255
0000b0 f4 b6 4c 3d 19 ae 7f 3f dd d6 a3 3b 2e ff 7f 3f
       0.049979165 0.99875027 0.004999979 0.9999875
0000c0 8c 0f 8f be b8 cd 75 3f 68 8c 10 3f 32 49 53 3f
       -0.2794155 0.96017027 0.5646424 0.8253356
0000d0 d1 9c 75 3d 12 8a 7f 3f 58 9b c4 3b d2 fe 7f 3f
       0.059964005 0.99820054 0.0059999637 0.999982
0000e0 46 30 28 3f bd ff 40 3f 72 eb 24 3f b3 cc 43 3f
       0.6569866 0.75390226 0.6442176 0.7648422
0000f0 32 3e 8f 3d 81 5f 7f 3f c5 5f e5 3b 65 fe 7f 3f
       0.06994285 0.997551 0.006999942 0.9999755
000100 95 46 7d 3f f6 fd 14 be a5 a4 37 3f 5f 5b 32 3f
       0.98935825 -0.14550003 0.717356 0.6967067
000110 50 aa a3 3d 65 2e 7f 3f 12 12 03 3c e7 fd 7f 3f
       0.07991469 0.9968017 0.007999914 0.999968
000120 32 01 d3 3e d5 3f 69 bf 1c 88 48 3f d5 21 1f 3f
       0.4121185 -0.91113025 0.78332686 0.62161
000130 3e 12 b8 3d c2 f6 7e 3f 3a 74 13 3c 59 fd 7f 3f
       0.089878544 0.9959527 0.008999879 0.9999595
000140 f8 44 0b bf 64 cd 56 bf a4 6a 57 3f 41 51 0a 3f
       -0.5440211 -0.8390715 0.84147096 0.54030234
000150 76 75 cc 3d 98 b8 7e 3f 57 d6 23 3c b9 fc 7f 3f
       0.099833414 0.9950042 0.009999833 0.99995
000160 5c ff 7f bf 72 05 91 3b 2a 26 64 3f c3 3d e8 3e
       -0.9999902 0.004425698 0.89120734 0.4535962
000170 72 d3 e0 3d e8 73 7e 3f 69 38 34 3c 09 fc 7f 3f
       0.1097783 0.9939561 0.010999777 0.9999395
000180 d8 5c 09 bf d0 06 58 3f 1d 9a 6e 3f f7 86 b9 3e
       -0.53657293 0.84385395 0.9320391 0.36235783
000190 ac 2b f5 3d b5 28 7e 3f 70 9a 44 3c 48 fb 7f 3f
       0.119712204 0.99280864 0.011999711 0.999928
0001a0 22 20 d7 3e 6f 4e 68 3f c0 ab 76 3f 9d f5 88 3e
       0.42016703 0.9074468 0.9635582 0.26749888
0001b0 d0 be 04 3e 00 d7 7d 3f 6a fc 54 3c 76 fa 7f 3f
       0.12963414 0.9915619 0.012999633 0.9999155
0001c0 72 98 7d 3f d7 04 0c 3e 6f 46 7c 3f e7 0b 2e 3e
       0.9906074 0.13673721 0.98544973 0.16996728
0001d0 64 e4 0e 3e cc 7e 7d 3f 55 5e 65 3c 94 f9 7f 3f
       0.13954312 0.990216 0.013999541 0.999902
0001e0 44 79 26 3f e8 7a 42 bf d5 5b 7f 3f ba de 90 3d
       0.65028787 -0.7596879 0.997495 0.07073732
0001f0 4f 06 19 3e 1a 20 7d 3f 32 c0 75 3c a1 f8 7f 3f
       0.14943813 0.9887711 0.014999436 0.9998875
000200 10 68 93 be 2c 29 75 bf 0e e4 7f 3f a3 33 ef bc
       -0.2879033 -0.9576595 0.9995736 -0.029199427
000210 50 24 23 3e ed ba 7c 3f 00 11 83 3c 9d f7 7f 3f
       0.15931821 0.98722726 0.015999317 0.999872
000220 25 1e 76 bf 36 e2 8c be bf dd 7d 3f cb ef 03 be
       -0.96139747 -0.27516335 0.9916648 -0.12884443
000230 23 3e 2d 3e 49 4f 7c 3f dd 41 8b 3c 88 f6 7f 3f
       0.16918235 0.9855848 0.01699918 0.9998555
000240 b3 40 40 bf 84 0a 29 3f 14 4e 79 3f a7 a7 68 be
       -0.75098723 0.6603167 0.9738476 -0.22720204
000250 87 53 37 3e 2e dd 7b 3f b2 72 93 3c 62 f5 7f 3f
       0.17902957 0.9838437 0.017999027 0.999838
000260 69 79 19 3e bf 1b 7d 3f ba 40 72 3f 31 86 a5 be
       0.1498772 0.9887046 0.94630015 -0.32328942
000270 3a 64 41 3e a1 64 7b 3f 7d a3 9b 3c 2c f4 7f 3f
       0.1888589 0.9820042 0.018998856 0.9998195
000280 c8 b6 69 3f 22 f0 d0 3e b8 c7 68 3f 2f 11 d5 be
       0.9129453 0.40808207 0.90929747 -0.41614673
000290 f8 6f 4b 3e a5 e5 7a 3f 3e d4 a3 3c e5 f2 7f 3f
       0.19866931 0.9800666 0.019998666 0.9998
0002a0 10 2f 56 3f fc 37 0c bf 4b fb 5c 3f 97 3d 01 bf
       0.8366556 -0.54772925 0.8632094 -0.50484604
0002b0 83 76 55 3e 3c 60 7a 3f f3 04 ac 3c 8d f1 7f 3f
       0.2084599 0.9780309 0.020998454 0.9997795
0002c0 15 05 11 bc 6f fd 7f bf a1 f9 4e 3f 00 a8 16 bf
       -0.008851309 -0.99996084 0.80849653 -0.588501
0002d0 96 77 5f 3e 6a d4 79 3f 9e 35 b4 3c 24 f0 7f 3f
       0.21822962 0.97589743 0.021998223 0.999758
0002e0 e6 a1 58 bf bf 67 08 bf 8a e6 3e 3f 10 91 2a bf
       -0.8462204 -0.53283304 0.74570525 -0.666276
0002f0 f0 72 69 3e 34 42 79 3f 3d 66 bc 3c ab ee 7f 3f
       0.22797751 0.9736664 0.02299797 0.99973553

cnn.0.weight f4 [64, 19, 3]
000000 ef 05 fd 3a 59 ec e8 3a 77 aa a5 3a 52 da e4 ba
       0.0019304137 0.0017770632 0.0012639303 -0.0017460084
000010 48 1a 9b 3a 49 c4 99 3a 08 5e 2b ba 45 5d 7a ba
       0.0011833394 0.0011731471 -0.0006537144 -0.00095506414
000020 24 c4 ca 3a 66 3e 27 ba 13 10 1e ba 29 80 d9 3a
       0.0015469831 -0.00063798425 -0.0006029617 0.0016593981
000030 88 35 b7 3c a9 62 0c bd 8b c5 41 3c 54 b8 2b 00
       0.022364393 -0.034273777 0.011826883 4.015051e-39
000040 0e a9 3f 00 a1 ad 5d 80 65 02 08 80 a8 81 6e 80
       5.846282e-39 -8.602987e-39 -7.35543e-40 -1.0148416e-38
000050 74 60 eb 85 24 68 ec 3a b5 88 3b 3b d7 13 0c 3a
       -2.2134725e-35 0.0018036407 0.002861542 0.00053435325
000060 6e 66 18 3a 2c 56 03 38 47 34 03 b9 f7 99 1d 3b
       0.0005813603 3.1313088e-05 -0.00012512608 0.002404807
000070 de 04 10 3b 3a ce fd 39 19 c3 d4 ba a7 e4 39 3b
       0.0021975557 0.0004840957 -0.001623246 0.0028365047
000080 d0 1b e9 3a 8c c8 e6 b9 c6 8c 54 3c 1a 50 ce bb
       0.0017784778 -0.00044018438 0.012973016 -0.00629617
000090 1d 12 72 3b 78 b0 81 3b 87 d1 26 3c c6 08 9e b8
       0.0036937066 0.0039578043 0.010181791 -7.535661e-05
0000a0 fe b7 11 bb bc 67 a0 3a 96 25 72 80 63 29 0b 88
       -0.0022234912 0.0012237947 -1.048273e-38 -4.187744e-34
0000b0 59 f1 0f 00 2a 8e 07 11 c1 aa 2d 00 1a fd 53 00
       1.464112e-39 1.069343e-28 4.193852e-39 7.713142e-39
0000c0 89 c0 e0 bb 5b 2b 42 3c a2 54 27 bb 30 ae e2 3a
       -0.0068588895 0.011851157 -0.0025532623 0.0017294344
0000d0 b3 2a e8 3a a2 fa 0f b9 3a d5 60 bd c0 14 40 3d
       0.0017712921 -0.0001373091 -0.05489085 0.04689479
0000e0 d1 c7 15 bd a1 72 ec ba 32 27 47 ba 09 5d ec ba
       -0.036567513 -0.0018039533 -0.0007597088 -0.0018033098
0000f0 0a b4 95 bb bb 00 1e bb 96 fb 87 ba 60 41 cc 39
       -0.0045685815 -0.0024109322 -0.0010374661 0.0003895862
000100 e5 72 80 3a ab b9 e5 ba c4 41 57 b9 33 05 56 38
       0.0009799866 -0.0017526647 -0.00020528497 5.1026418e-05
000110 15 48 96 39 a4 d9 6c bc f4 76 c6 3b 1a 12 6e 3c
       0.00028663935 -0.014456186 0.006056661 0.014530683
000120 e6 60 dd 08 4c 7d 00 80 e2 7a 60 00 cc b7 6d 80
       1.3323734e-33 -4.4948e-41 8.86029e-39 -1.0076003e-38
000130 14 87 17 11 bb 3b 9d 8d 9b ff 5a bb bf 17 8c ba
       1.1953424e-28 -9.690252e-31 -0.0033416513 -0.0010688229
000140 ed 8d 56 bb e1 5e 6e ba c6 5d 36 ba 2d c6 0e 3b
       -0.0032738403 -0.00090931176 -0.00069567224 0.0021785602
000150 94 78 7d 3a 43 07 25 b9 4e 53 be 3a 83 ca 9b 3c
       0.00096691516 -0.00015738331 0.0014520676 0.019017464
000160 a0 1e 3a ba 13 9e ec ba c0 ce ed 3c d7 31 09 bc
       -0.00070999004 -0.0018052481 0.02902925 -0.008373699
000170 ed 3f d5 3b cb 25 b0 3b f0 a0 a5 bc 34 d6 db 3a
       0.0065078647 0.005375599 -0.020218343 0.0016772212
000180 64 87 8f ba 8a 0d 4e 3a d6 6c 53 bb cf 49 32 80
       -0.0010950384 0.0007860294 -0.0032260916 -4.618252e-39
000190 ac 73 57 00 16 5a 6e 00 c0 61 38 80 34 4e 5a 10
       8.031183e-39 1.0134221e-38 -5.177854e-39 4.3053165e-29
0001a0 5a 61 54 86 f3 1d 37 bc ac a0 c4 bb 93 79 d9 bb
       -3.994429e-35 -0.011176574 -0.006000599 -0.006636807
0001b0 e4 f0 e5 3a 47 01 48 bb 09 25 37 ba 0e 4e ec 3c
       0.0017543104 -0.003051834 -0.00069864147 0.028845813
0001c0 22 45 80 3c 75 e7 47 3d 57 fb 0b bb 1b 87 15 bb
       0.015657965 0.04880472 -0.0021359527 -0.0022816125
0001d0 ee 4a 99 ba be 5a 10 bb 44 80 15 bb 7a 9c 95 ba
       -0.0011695304 -0.0022026743 -0.0022812048 -0.0011414432
0001e0 48 6c 00 bb 02 02 10 bb 33 9c f5 ba 21 d5 6d ba
       -0.001959579 -0.0021973853 -0.0018738568 -0.0009072591
0001f0 2d e6 c2 b9 06 f4 d0 3a 56 d6 62 bc 3d d0 d2 3c
       -0.00037174058 0.0015941865 -0.013845047 0.025734061
000200 8e df 8e bb 7e 70 0c 00 96 83 17 80 07 88 c4 8f
       -0.004360146 1.14238e-39 -2.15942e-39 -1.9379488e-29
000210 23 fd 2d 00 10 90 51 01 92 c0 4b 00 c2 35 a4 ba
       4.223406e-39 3.8490597e-38 6.956743e-39 -0.0012528228
000220 40 37 b9 ba 95 bf 12 bb 4a 4f b4 ba fd e6 c0 ba
       -0.0014130846 -0.0022392024 -0.001375654 -0.0014717277
000230 cf 1a c0 ba 78 91 9d ba f1 39 a3 ba eb 62 2c bb
       -0.0014656427 -0.0012021502 -0.0012453181 -0.0026304077
000240 6f 80 3d bb 81 64 86 bb 8c da 06 bb 0a b5 ef bb
       -0.0028915664 -0.0041013365 -0.0020577041 -0.0073152827
000250 02 df ce bb ae 38 b8 b9 ae ac b0 bb 28 61 a6 bb
       -0.0063132057 -0.00035137445 -0.005391679 -0.0050775
000260 6c 5f 7e bb d2 81 0b bb ea 4d 0b bb 3c 1f b0 ba
       -0.00388142 -0.0021287096 -0.0021256157 -0.0013437043
000270 11 c0 59 80 4c 7f 9f 0d c1 fc 1a 80 68 b5 2e 80
       -8.24226e-39 9.829777e-31 -2.478394e-39 -4.289509e-39
000280 c0 f5 46 00 3a 40 2a 80 4d a8 d0 ba bf 14 07 bc
       6.516643e-39 -3.880131e-39 -0.0015919298 -0.008244692
000290 eb d1 52 bb 79 41 9e ba 69 e2 a5 ba 4f 55 a1 ba
       -0.0032168578 -0.0012073956 -0.0012655976 -0.0012308749
0002a0 6d 9f cd b9 29 fd 60 3d 1d 56 43 3d 64 f9 cc bb
       -0.00039219428 0.054928932 0.047689546 -0.0062553156
0002b0 69 9f a9 3b 65 1e a7 ba 25 c0 e7 ba 18 aa 1c 38
       0.005176474 -0.0012750147 -0.0017681165 3.735171e-05
0002c0 d9 15 68 ba 56 d6 1f 3b 6c 18 af 3b a0 01 40 bb
       -0.0008853353 0.0024389229 0.0053434875 -0.0029297844
0002d0 46 82 07 b9 4a 7a d7 38 5c fd a7 3c e1 83 86 bc
       -0.00012923134 0.00010274777 0.020506553 -0.016420307
0002e0 32 13 07 3d b1 e6 bd 3c 74 4a 37 00 8a 38 76 80
       0.03297729 0.023181291 5.077661e-39 -1.0856871e-38
0002f0 b5 2c 0e 00 4e 58 2f 00 8b ec 0c 88 91 cf 72 80
       1.301735e-39 4.347946e-39 -4.2407772e-34 -1.0543707e-38
000300 c4 0d e7 3a 69 10 10 bb 38 09 9a bb 8e f2 d7 bb
       0.0017628004 -0.0021982437 -0.004700806 -0.006590194
000310 38 e2 77 b8 71 03 6b bb 04 96 f5 3a 58 b2 1e bb
       -5.910007e-05 -0.0035860206 0.0018736725 -0.0024215188
000320 b5 28 d8 bb d5 bf a4 bb 9e b3 21 bc 1a 01 55 bb
       -0.0065966495 -0.005027751 -0.009869484 -0.0032501877
000330 4e 79 e7 b9 2a 28 2c 3c 5b 05 8b 3b 9e e5 51 3c
       -0.00044150132 0.010507623 0.004242582 0.012811093
000340 fa 93 41 3c 0a cc 51 bc 2d ad 73 ba 0c a1 f1 3a
       0.0118150655 -0.012804994 -0.00092955196 0.0018434837
000350 fd c7 6e 3b a2 63 c6 81 d5 e9 0e 80 21 4c 44 80
       0.003643512 -7.287668e-38 -1.36958e-39 -6.272124e-39
000360 0a cd 4c 00 c8 d4 60 81 df c6 27 00 48 c3 23 bb
       7.053052e-39 -4.1294965e-38 3.652926e-39 -0.0024988223
000370 6b 69 a0 bc e6 4a e4 bb 41 e8 50 3b 40 72 c2 bb
       -0.019581517 -0.0069669364 0.0031876715 -0.00593403
000380 c9 b6 e5 3a 77 56 d6 bc 51 d2 b7 bc 69 dc 50 3d
       0.0017525788 -0.026164277 -0.022439154 0.05099145
000390 0b 5f 7c bb 1e f7 8f bb 79 66 33 bb fb a8 95 bb
       -0.0038508798 -0.0043934723 -0.002737431 -0.004567263
0003a0 df a0 96 bb 8d b4 05 bb a9 b6 7f bb 0d f7 8b bb
       -0.004596814 -0.0020401806 -0.0039018786 -0.004271394
0003b0 0b ec b1 ba 20 ed b5 b8 ee d3 b3 b8 29 00 f5 bc
       -0.0013574375 -8.6749205e-05 -8.57486e-05 -0.029907303
0003c0 18 f0 25 bd a1 3a 3f 3d 8e 84 9d 3c df 50 6f 00
       -0.040512174 0.046686772 0.019228246 1.0222751e-38
0003d0 a8 d0 2f 00 36 b4 ca 00 92 df f8 0b de c4 62 80
       4.39112e-39 1.8615418e-38 9.5862516e-32 -9.070501e-39
0003e0 24 ad 04 00 45 d9 f5 ba aa 89 0b bb e2 df df ba
       4.29453e-40 -0.0018756768 -0.002129177 -0.0017080272
0003f0 6b 3f 24 bb 03 a4 3e bb d0 ec 0e bc c9 19 00 bb
       -0.0025062214 -0.0029089458 -0.008723453 -0.001954662

cnn.0.bias f4 [64]
000000 5d 0b fb 3c d1 2a 95 3b ee e2 c8 bc 9f 75 34 bd
       0.030645067 0.0045522233 -0.024522271 -0.044057485
000010 cb e0 3a 3c 08 7e 36 3c 52 56 91 bb a2 e8 95 bd
       0.011406134 0.011138447 -0.004435339 -0.07319762
000020 cb cd e7 ba 6b 73 96 bc 23 fe 3b bd 2d 07 1a bd
       -0.0017685232 -0.018365582 -0.04589666 -0.0376045
000030 d3 23 0f bd 60 a1 42 3c c8 8f e8 3c bf 15 e8 3c
       -0.034946274 0.011879295 0.028388873 0.028330682
000040 02 ad 5d 3c 0c 48 48 3c c5 c0 d7 3c 96 b8 97 bb
       0.013530018 0.012224209 0.026337037 -0.0046301587
000050 52 9e 27 bc f6 98 c6 bc 8f 82 63 3c 92 54 69 3c
       -0.010230618 -0.02424286 0.013886108 0.014241355
000060 09 41 89 3c 08 b3 cf 3c 36 db c9 bc c5 0c d4 3c
       0.016754644 0.025353923 -0.02464066 0.025884995
000070 da 04 cd 3c 6c 79 18 3d 19 71 8d bc 1f 89 56 3b
       0.025026727 0.037225172 -0.017265843 0.003273554
000080 40 62 8e 3c 1f 70 f3 bc 14 f9 00 3c 15 5a 35 3c
       0.017380834 -0.02971655 0.007871885 0.0110688405
000090 1f fe 8f bc e7 89 08 bd 5b d4 55 bc c0 6d b3 3c
       -0.017577229 -0.03333464 -0.013051118 0.021902919
0000a0 37 da 6d 3c 88 b7 ea 3b ed 47 2f bd bf 86 91 bc
       0.0145173585 0.007162992 -0.042793203 -0.017764447
0000b0 06 31 76 bd ee 63 8a 3c 4b bf 79 bc 07 45 22 3d
       -0.060105346 0.016893353 -0.015243362 0.03961661
0000c0 47 83 3d 3c d5 d4 dd 3c b2 0b d4 3c ac 4a 3f bc
       0.0115669435 0.027079025 0.025884483 -0.011675518
0000d0 7a 8c 2c bb 09 be 08 bb d3 4c 54 bc ad d9 81 bc
       -0.0026328848 -0.0020865223 -0.012957769 -0.015850866
0000e0 74 26 f3 3c 1e 5f 85 3c 5a d5 25 bd 16 ad 87 bc
       0.029681422 0.016280707 -0.04048667 -0.016562026
0000f0 34 9b 37 bc d3 d8 7b bd e2 8d d4 bb 5d ec 22 bd
       -0.011206437 -0.061486077 -0.0064866403 -0.039776195

cnn.2.weight f4 [64]
000000 59 a0 91 3e 0a ae 8e 3e 33 50 84 3e bc 3b 89 3e
       0.28442648 0.27867156 0.25842437 0.26803386
000010 62 b2 88 3e 6b 79 7c 3e 07 28 81 3e af 00 83 3e
       0.26698595 0.24655692 0.2522585 0.2558646
000020 52 4f 88 3e 53 5a 67 3e 99 79 6c 3e 4a 3f 85 3e
       0.26623017 0.2259305 0.23093261 0.26024848
000030 4e 92 70 3e 37 90 89 3e 7f 3f 79 3e 23 cd 7a 3e
       0.23493311 0.2686784 0.24340628 0.24492316
000040 94 a4 5f 3e 1d 2b 9f 3e 7b f7 75 3e cd dd 98 3e
       0.21840125 0.3108758 0.24020188 0.2985672
000050 06 86 81 3e 13 c0 95 3e f0 ae 63 3e 14 10 66 3e
       0.25297564 0.29248103 0.22234702 0.22467071
000060 79 79 85 3e 94 37 77 3e ca f8 79 3e 26 99 89 3e
       0.2606924 0.24142295 0.24411312 0.26874655
000070 00 b7 ae 3e c4 d6 5e 3e 6d 75 93 3e aa 34 a0 3e
       0.34123993 0.21761614 0.28800526 0.3129018
000080 ad dd 89 3e 46 28 76 3e 87 6c 96 3e dd f6 78 3e
       0.26926938 0.240388 0.29379675 0.24312921
000090 4c a9 91 3e 20 39 80 3e 78 48 7d 3e a3 99 81 3e
       0.28449476 0.25043583 0.24734676 0.25312528
0000a0 85 11 81 3e f2 a4 a3 3e be d3 81 3e b8 35 7c 3e
       0.2520868 0.3196178 0.2535686 0.24629867
0000b0 8d e4 83 3e b8 93 78 3e db f0 8d 3e 05 b5 71 3e
       0.25760308 0.242751 0.2772282 0.2360421
0000c0 12 58 6f 3e 92 61 88 3e 1d c4 88 3e 73 81 b0 3e
       0.2337344 0.2663694 0.26712123 0.34473762
0000d0 1e 4d 7e 3e 2c 4a a2 3e 03 d9 7e 3e 5a 42 77 3e
       0.24834105 0.31697214 0.24887471 0.24146405
0000e0 1f d5 7d 3e f6 f5 78 3e 77 ad 61 3e a3 98 80 3e
       0.2478833 0.24312577 0.22038828 0.25116453
0000f0 b0 98 65 3e e1 b3 81 3e 1c 84 84 3e b7 74 a2 3e
       0.22421527 0.2533255 0.2588204 0.3172967

cnn.2.bias f4 [64]
000000 61 a7 8a 3b e1 d8 8b 3a ca 90 0b bc 49 5e 41 bb
       0.004231379 0.0010669493 -0.008518407 -0.0029505661
000010 7d 22 82 bb 42 5e d8 bb 8a 0b ef 3b 02 ef 55 bb
       -0.0039713965 -0.0066030333 0.0072950767 -0.003264368
000020 96 ed 22 3b de d8 48 39 f1 4d bf 3a bd a8 fa ba
       0.002486085 0.00019154276 0.0014595372 -0.0019123774
000030 4e d5 ba ba 7d f7 29 3b 54 13 00 3b cf 04 84 b9
       -0.0014254244 0.0025934868 0.001954277 -0.00025180585
000040 64 e4 f5 ba 71 95 ac b9 f0 e3 cc bb b7 4d aa bb
       -0.0018760082 -0.0003291774 -0.006252758 -0.0051972526
000050 37 cb 85 3b 20 26 3d 3b a6 ae 3b ba e6 52 66 bb
       0.004083063 0.0028861836 -0.00071595085 -0.0035144626
000060 bd aa c3 bb 7e 24 50 bb 09 f6 07 bb 04 a2 a6 3b
       -0.0059712813 -0.0031760032 -0.0020746014 0.0050852317
000070 76 f2 06 ba 93 34 0e 3a 36 87 7d 3b 22 ad 88 bb
       -0.0005147824 0.0005424704 0.0038685328 -0.0041710297
000080 f3 d4 a2 ba 4d 66 9a 3a 95 42 1e 3a a1 18 d2 3a
       -0.0012423083 0.0011779756 0.0006037143 0.0016029069
000090 49 22 fb ba a0 17 12 bc 6f f9 42 3b d5 79 a0 3b
       -0.0019159998 -0.008916765 0.0029750725 0.004897336
0000a0 e3 29 00 bb 68 aa 17 3b f1 22 84 3a 3d 7f d4 3b
       -0.0019556216 0.0023142342 0.0010081214 0.0064848945
0000b0 9a 9e 87 3b d5 8d fc bb 06 1a 58 bb 93 44 fc 3a
       0.00413878 -0.0077073374 -0.0032974496 0.0019246511
0000c0 ef 42 06 bb cc b6 50 3b 08 6d 8d bb e5 08 81 bb
       -0.0020486673 0.0031847237 -0.004315976 -0.003937828
0000d0 54 c1 71 b9 39 9f 07 bb 6b 25 2b bb 91 ad 17 3b
       -0.00023055571 -0.002069427 -0.0026114832 0.0023144225
0000e0 af f9 f7 3a 78 cb 8d 3b 61 66 4b bb d8 1b d6 3a
       0.0018919016 0.004327234 -0.0031036364 0.0016335202
0000f0 4c 1d 60 3b 07 f8 01 3a f5 1e 41 bb 13 6c 0b bc
       0.003419715 0.00049579184 -0.0029467915 -0.008509654

cnn.2.running_mean f4 [64]
000000 74 50 dc 3c 03 ba 73 3c a4 38 7c b9 f0 3f 09 bc
       0.026893832 0.014875892 -0.00024053693 -0.00837706
000010 43 94 96 3c 24 22 74 3c b5 60 13 bb 65 e3 5b bc
       0.018381244 0.014900718 -0.0022488062 -0.013420914
000020 3c 2e 3c 3b aa 26 59 bb 12 39 e8 bb 70 55 0e bc
       0.0028714081 -0.0033134618 -0.0070868814 -0.008687362
000030 1b 9f c3 bb 05 cc 3e 3c 9c 45 c0 3c 57 60 94 3c
       -0.0059698946 0.011645322 0.023470692 0.018112345
000040 20 8a 51 3c da 12 b9 3c 31 42 e9 3c 46 31 5c bb
       0.012789279 0.022591997 0.028473945 -0.0033598705
000050 46 7c 20 bb 35 a2 22 bb 8f 30 87 3c 8f c3 94 3c
       -0.0024488135 -0.0024815921 0.016502647 0.018159656
000060 5e 50 b7 3c 05 be ac 3c ba 73 a3 bb 1d 8d a2 3c
       0.02237719 0.021086702 -0.004988161 0.019842679
000070 41 4f 0a 3d 9a 3a f3 3c 2a bc a2 bb 89 f4 6e 3b
       0.03376699 0.02969103 -0.0049662786 0.0036461672
000080 a3 c2 b3 3c 48 c8 a7 bb 42 ce 85 3c 49 bf 14 3c
       0.021943396 -0.005120311 0.016333703 0.009078809
000090 2b 02 40 bb 3d 82 9c bb 58 c8 84 bb 16 fb ab 3c
       -0.0029298167 -0.004776268 -0.004052203 0.02099375
0000a0 a7 e1 23 3c ed 46 4f 3c ba cc 14 bc 1a 00 97 bb
       0.01000253 0.012651187 -0.009082014 -0.0046081664
0000b0 04 86 32 bc af 04 a0 3c 48 80 fa 3a 8d 8d 07 3d
       -0.01089621 0.019533483 0.0019111717 0.033093978
0000c0 f3 cf 8b 3c 2a 32 b1 3c 3a 4a e3 3c 04 eb e9 3b
       0.017066931 0.021630365 0.027745355 0.0071386117
0000d0 a4 75 19 3b dd b6 c4 3b a4 73 98 ba d7 8f 8a bb
       0.0023416067 0.0060032443 -0.0011631143 -0.004228573
0000e0 ac c9 c2 3c c4 eb 98 3c f3 02 e7 bb 7d ce 58 bb
       0.023777805 0.01866711 -0.007049912 -0.003308206
0000f0 a0 69 8d bb f3 ed 27 bc b6 a3 9d 3b ba ad ac bb
       -0.00431557 -0.010249603 0.0048107756 -0.0052697333

cnn.2.running_var f4 [64]
000000 d8 62 23 39 d8 04 39 39 e8 53 9f 38 90 68 b3 36
       0.00015581714 0.0001764478 7.5973396e-05 5.3467884e-06
000010 e7 cd dd 38 b7 c9 87 39 59 b7 94 36 1b df 1e 37
       0.000105764535 0.00025899496 4.432088e-06 9.46948e-06
000020 b0 50 3f 38 e0 67 3e 36 da 36 a4 37 bc 83 07 37
       4.5613095e-05 2.837267e-06 1.9575866e-05 8.077299e-06
000030 6d ab 32 37 fd 47 dd 38 20 f6 0e 39 14 fe 12 39
       1.064954e-05 0.0001055151 0.00013633864 0.00014018296
000040 b8 5a ca 38 d0 1f 9a 39 7c 96 9a 39 3f 46 11 37
       9.649008e-05 0.0002939687 0.00029485289 8.659029e-06
000050 0c 05 51 37 0b 2e 22 38 62 05 45 39 1c 97 29 39
       1.2458546e-05 3.866669e-05 0.0001878939 0.00016173389
000060 fe 6e 30 39 83 06 15 39 f9 28 f2 36 6a 7b 25 39
       0.00016826016 0.00014212173 7.216932e-06 0.00015781602
000070 7b 0d 50 39 98 5c fe 38 4e ea 86 36 9d 77 20 38
       0.00019841448 0.00012128911 4.020788e-06 3.825837e-05
000080 c6 e1 43 39 21 cd be 36 0c 29 44 39 3e de 97 38
       0.00018680756 5.6863214e-06 0.00018707308 7.241637e-05
000090 d8 f0 8f 36 94 15 f8 37 fb 19 03 37 fb c3 3a 39
       4.28977e-06 2.9573952e-05 7.8142575e-06 0.0001781135
0000a0 1b 9f c2 38 55 50 4e 38 12 2e 16 37 37 f4 d8 36
       9.2802766e-05 4.9189042e-05 8.951423e-06 6.465732e-06
0000b0 77 5b 74 36 f4 36 33 39 b0 96 c0 38 75 16 60 39
       3.6412073e-06 0.00017091242 9.183341e-05 0.0002137067
0000c0 03 9a c0 38 7d 74 f2 38 bd c5 88 39 c1 10 67 39
       9.18396e-05 0.00011561157 0.00026087268 0.00022036118
0000d0 6d b2 cc 38 9c fd 17 39 6d 3a 34 37 73 9a da 36
       9.7607124e-05 0.00014494959 1.0742439e-05 6.5148865e-06
0000e0 3c af 04 39 e1 ae 2e 39 6a e3 dc 36 8d 8f 1e 36
       0.00012653781 0.0001665908 6.5829854e-06 2.3627392e-06
0000f0 0a 8c 1d 37 13 9a 04 37 37 f6 18 39 84 66 4d 38
       9.390535e-06 7.903686e-06 0.00014587572 4.8971284e-05

cnn.3.weight f4 [64, 64, 3]
000000 dd 3f e5 bb 25 41 ba bb 7d 3b 54 3c e9 03 86 bc
       -0.0069961385 -0.0056840354 0.012953636 -0.016359286
000010 9e 0d d8 bb b0 2c 10 bb 98 74 89 b9 73 d5 b5 bc
       -0.00659342 -0.0021999292 -0.00026217545 -0.022196507
000020 56 1a 24 bc 53 05 ed bc 35 32 df 3c 46 1d c1 bb
       -0.010016045 -0.028933203 0.02724562 -0.0058933822
000030 0f 50 0f 3d 1c 25 3d bc dd f3 ca bb 11 de 8e 3b
       0.03498846 -0.011544492 -0.0061936215 0.0043599685
000040 dd a1 e5 bc c9 02 55 ba 08 6e f5 bb c0 cd 72 bb
       -0.028031284 -0.000812572 -0.0074899234 -0.0037048906
000050 2d be fe bb a3 2b bb bc 7f 51 4c bb d9 a9 3d 3b
       -0.0077741356 -0.022847956 -0.0031176505 0.0028940348
000060 0e a1 94 bb 0e 74 61 bc 4d db f8 39 a1 1b 64 3c
       -0.004535801 -0.01376058 0.00047465638 0.013922603
000070 e0 91 04 bc 11 70 fc bb 17 17 60 bc 32 92 66 3c
       -0.00809142 -0.007703789 -0.01367738 0.014072942
000080 9a 6c 45 3c 23 ef 41 bb 1e 18 c5 3c 7c 7e 6f 3c
       0.012049818 -0.0029592 0.024059352 0.014617559
000090 fd 0d 6d 3c 8c 0e 8f 3c 32 51 96 3b f3 5f a3 3c
       0.014468667 0.017462991 0.004587316 0.019943213
0000a0 72 1c 8b bc 32 e0 05 bc 3a a2 b4 3c c7 b4 d4 3c
       -0.016981337 -0.008171128 0.022050012 0.025965108
0000b0 59 43 58 3b 0c 59 ee 3b c8 d5 f3 3b 14 a8 b7 3c
       0.0032999127 0.007273799 0.007441256 0.022419013
0000c0 37 d0 a9 3a b9 60 5d 3b 90 04 54 ba 50 54 c8 bb
       0.001295573 0.0033779575 -0.0008087838 -0.0061135665
0000d0 93 7f d1 ba 57 33 99 bc fb 48 bb bc 86 41 a7 3b
       -0.0015983455 -0.018701239 -0.022861948 0.0051042465
0000e0 2f f2 be ba a9 cc 14 bc c2 3f 9b 3c 67 21 9d 3c
       -0.0014568026 -0.009081998 0.0189513 0.019180967
0000f0 f5 6f 3b 3c 57 42 59 bc d4 6b 60 3a fa 6a 65 bb
       0.011440267 -0.013260446 0.00085609895 -0.003500639
000100 e7 99 bf 3c 3e 22 90 3b b3 6e b4 bb b6 ae 8e bc
       0.023388816 0.0043986132 -0.0055063604 -0.017417293
000110 7e ed 66 3b 12 89 7a 3a bd 55 cf bc ca 2d 67 3b
       0.0035236771 0.0009557168 -0.025309438 0.0035275095
000120 7a 8e b5 3c 52 25 d5 bc 63 fb 4f 3b 22 61 af bb
       0.022162665 -0.026018772 0.0031735532 -0.0053521553
000130 9e 8b 79 3c bd 13 3a 3c eb 42 0c bc e6 39 80 3a
       0.015231041 0.011357245 -0.008560876 0.000978288
000140 fb 89 9a 3b 35 a0 dd 3b 10 6d d6 3b 8b 1b fb 3c
       0.0047161556 0.006763483 0.006543763 0.030652782
000150 97 f6 d4 3c 77 6c 9b 3c 89 c9 c5 ba c2 7d 91 3c
       0.02599649 0.018972619 -0.0015089969 0.017760161
000160 92 0e e0 b9 8e 0d 49 ba 0f 24 af 3c 69 93 c1 bc
       -0.00042735465 -0.00076695613 0.021379499 -0.023629861
000170 60 93 ec 3c 81 55 77 3c 88 c0 73 3c e4 29 6e bc
       0.028878868 0.015096069 0.014877446 -0.014536355
000180 97 fd 91 3c 2d 7a aa 3c 23 ed 44 3c f3 06 62 bb
       0.017821116 0.020810211 0.012019428 -0.0034489005
000190 ee ee f8 bc f1 94 72 3c 22 8f 9d bc ee 13 d8 bc
       -0.030387368 0.014806018 -0.01923329 -0.02637669
0001a0 0e 07 48 bb 38 b0 7b 3c 69 12 83 bb e4 70 32 bb
       -0.0030521783 0.015361838 -0.0039999974 -0.0027227933
0001b0 52 5e 39 3c c7 2f 0f bb 6e ed 93 3c 7e 8a 90 3b
       0.011313992 -0.0021848546 0.018057551 0.004411041
0001c0 21 b2 a0 3c 71 f7 c4 3a a6 3d 14 bc ab c1 42 bb
       0.019616188 0.0015027357 -0.009047901 -0.0029717486
0001d0 49 73 76 3c f5 c2 ba bc 6a 58 8e 3b 27 e0 6d bc
       0.015042135 -0.02279804 0.004344036 -0.014518774
0001e0 e1 16 d6 3c 84 be f5 3c 7c 08 c3 3c c4 d1 04 3d
       0.026133956 0.029998071 0.023807757 0.03242661
0001f0 86 e6 14 bc 29 96 39 3b a5 7c 05 3c 72 9a a0 3c
       -0.009088164 0.0028318262 0.008147393 0.019604895
000200 0b 7e a9 3c 48 02 d9 3b 50 da ef bb f0 bf 95 3c
       0.020689985 0.0066225864 -0.007319726 0.01828
000210 ce d4 c8 3c cd 09 e4 3c bc c6 e9 bb 8a 03 02 3c
       0.024515536 0.027836705 -0.0071342867 0.007935414
000220 d8 2e 68 bc 10 40 c1 b9 87 4b 9c bb 67 85 08 3b
       -0.014171325 -0.0003685956 -0.0047697457 0.0020831467
000230 1a 74 8b bc 34 9e 49 3c 9b 10 bb bc 05 04 78 3a
       -0.017023135 0.012305785 -0.022835067 0.0009461048
000240 f2 ef 08 3d 90 1c 82 bb 8f ca b4 3b 6c b7 27 bc
       0.033431955 -0.00397069 0.005517311 -0.010236602
000250 70 e4 0d 3a 97 bb 9e 3c 43 83 bd bb 2c 35 62 bb
       0.0005412763 0.01937656 -0.00578347 -0.0034516556
000260 56 de 41 3c 14 2e 65 3c ad 89 db bb 71 72 ae bc
       0.011832794 0.013988037 -0.006699762 -0.021294804
000270 c2 3f 90 bc c5 b0 2b 39 3c ee d5 3b d2 62 85 3b
       -0.017608527 0.00016373683 0.006528644 0.004070618
000280 19 75 47 bc e4 7f 35 bc 90 09 6b bc 32 c6 c1 3b
       -0.012173914 -0.011077855 -0.014345542 0.0059135193
000290 23 0d 04 bb de f0 c9 bc f6 e3 81 3c 7f 08 2f 3c
       -0.0020149432 -0.024650987 0.01585577 0.010683178
0002a0 7d e5 a5 bc 92 d2 be 3b 1d 52 24 3c 0c 2c 27 3b
       -0.02025103 0.005823442 0.010029343 0.0025508432
0002b0 96 4d e7 3c 1e e8 00 bc 9a a1 07 bc bd b8 86 3c
       0.028235238 -0.007867841 -0.008278275 0.016445512
0002c0 17 bd fe 3b de 33 8c 3c 5a 4a cf 3c 31 22 bd bb
       0.007774006 0.017114576 0.025304008 -0.005771898
0002d0 97 cf 76 bc 65 27 3e 3c 08 57 0f 3c a1 f3 a6 bc
       -0.015064142 0.011606072 0.008748777 -0.020379843
0002e0 93 38 69 3c a0 3c 58 bc ed f2 2f 3c 34 c9 5c bc
       0.01423468 -0.013198048 0.01073907 -0.013475705
0002f0 f9 06 4d bc 8a 97 9a bc e7 f1 ab bb e0 7f 5b bc
       -0.012513869 -0.018871088 -0.005247343 -0.013397187
000300 9c 6a 8d bc da c2 95 3a cd 1b ec bc 3e bc 0e 3c
       -0.01726275 0.0011425868 -0.02882185 0.008711873
000310 5e 08 14 3d e8 d5 cd 3c f8 be b1 3c 17 53 3f bb
       0.036140792 0.025126413 0.021697506 -0.0029193813
000320 46 82 19 3c de 87 88 3c 37 86 dd bc 49 d5 ac 3b
       0.0093694385 0.016666349 -0.027041538 0.005274449
000330 29 da a2 3c 35 9b e1 3c 66 1b e0 3b b6 19 b9 3b
       0.019879417 0.027539829 0.0068392036 0.005648817
000340 4f 5c 79 3c cb 21 8d bc 7a a4 2b bb a3 e0 c1 bc
       0.015219762 -0.017228028 -0.0026190565 -0.023666685
000350 86 00 24 bc 4b 48 2a 3b 42 ef 88 bc 40 f8 0f 3d
       -0.01000989 0.0025983031 -0.01671565 0.03514886
000360 cc a7 34 bc d3 53 69 3c c5 68 fd 3b 09 35 83 3c
       -0.011026334 0.014241177 0.0077334368 0.0160165
000370 fb 41 42 bc 91 03 98 bb 7a 7d 02 bc 16 81 33 bb
       -0.011856551 -0.004639097 -0.007964486 -0.0027390174
000380 0b f4 8f bb 88 4a 3b bc 1c 39 ad bc df e3 7f bc
       -0.004393106 -0.011431344 -0.021145396 -0.015618294
000390 a5 b0 26 bb 3c 36 81 3c 52 9b da bc 69 39 06 bd
       -0.0025434878 0.015772931 -0.02668539 -0.032769594
0003a0 b4 c7 00 bb fa b3 25 bb 29 51 e8 bc c1 d1 ba 3c
       -0.0019650282 -0.0025284276 -0.028359013 0.022805097
0003b0 d5 39 68 3c c1 87 9c bc fb 9c c1 3c ea cc ca bc
       0.0141739445 -0.019107701 0.023634424 -0.024755914
0003c0 d6 11 26 bc 87 d5 85 3c 54 66 01 3d b9 ee 10 3d
       -0.010136088 0.01633717 0.03159173 0.035383914
0003d0 85 e1 d6 3c 86 36 96 3c 4f 3b 8c 3b 91 d3 98 ba
       0.026230583 0.018336546 0.004279531 -0.0011659731
0003e0 13 6f b5 bb 7e 92 c9 bb cd e4 a5 bc 50 15 78 bc
       -0.0055369227 -0.0061514964 -0.020250702 -0.0151418
0003f0 58 93 52 3c 23 5c 22 3c a6 ab 3a 3c 11 d3 10 bc
       0.012852512 0.009909662 0.011393463 -0.008839385

cnn.3.bias f4 [64]
000000 e0 e7 60 bc 7a bc b5 bb 18 a8 ce bc 84 57 69 bb
       -0.013727158 -0.00554615 -0.025226638 -0.0035605142
000010 14 a8 cd 3a 4d c3 8e bc a2 3b 23 3c 31 f6 1f bc
       0.001569035 -0.017427111 0.009962948 -0.009763286
000020 0d 20 a3 bb 22 f0 75 ba 15 ec 9f 3b 58 04 ca bb
       -0.004978186 -0.0009381791 0.004880438 -0.0061650686
000030 fe e2 45 bb 4f 0b c5 ba 53 09 fb bb 45 a9 0a bc
       -0.0030195112 -0.0015033277 -0.0076610236 -0.008463209
000040 08 be 13 bc 45 e3 b0 38 aa 50 a9 bb d2 2e 4f bc
       -0.009017475 8.434666e-05 -0.0051670866 -0.01264544
000050 94 a5 22 bc 4b 6e 08 bc a4 70 db 3a da 85 77 3b
       -0.009927172 -0.008327077 0.0016741944 0.003776899
000060 25 f1 29 bc 04 ea c6 ba da f4 19 bc 20 8d c8 bb
       -0.010372435 -0.0015175943 -0.009396756 -0.006120339
000070 42 99 13 bb 85 55 92 bb 76 0a 8a bb 47 a0 a9 bb
       -0.0022521769 -0.004465761 -0.004212673 -0.0051765773
000080 1c 34 06 3c 24 43 5c bb 78 57 47 bc e1 26 fd bb
       0.008191135 -0.0033609355 -0.01216685 -0.007725582
000090 6e cf f2 ba d2 a0 e4 bb 04 bb 08 b9 ea 13 49 bb
       -0.0018524954 -0.006977179 -0.0001303964 -0.0030682036
0000a0 6e 7f 40 bc 58 50 ac bb 40 64 f1 3b 8e a4 21 bb
       -0.011749132 -0.005258601 0.007366687 -0.0024664733
0000b0 40 df 30 bb 35 ed 91 bc c6 fd f9 ba ac 8d 09 bc
       -0.0026988536 -0.017813304 -0.0019072823 -0.008395594
0000c0 9e e8 01 bb d5 e0 90 bb b5 8d d0 bb 02 ed 91 ba
       -0.0019822489 -0.0044213333 -0.006364549 -0.0011133256
0000d0 72 f6 38 bb b0 6f eb bb 3f 30 42 3b 28 fb 12 3b
       -0.0028223065 -0.007184945 0.0029630808 0.0022427533
0000e0 99 b1 de ba f2 41 52 bc 32 fa c9 bb c8 ba bc bb
       -0.0016990184 -0.012833105 -0.006163859 -0.0057595707
0000f0 05 b7 3a bc 33 cd 16 bc 5a d4 84 ba 43 2e 90 3b
       -0.011396174 -0.009204197 -0.0010134086 0.004400046

cnn.5.weight f4 [64]
000000 cb 9d cf 3e 9a 77 9a 3e af 77 cb 3e f2 ac 9a 3e
       0.40550074 0.30169374 0.3973975 0.30210072
000010 35 5a 8a 3e da 95 ab 3e 0b 92 8b 3e 99 34 cc 3e
       0.27021948 0.33512765 0.2725986 0.3988388
000020 f9 c1 87 3e 79 12 89 3e d1 94 c5 3e 4d 07 97 3e
       0.26515177 0.26771906 0.385901 0.29497758
000030 2a 49 89 3e 2d 69 c8 3e 3f 7d ba 3e df fb 83 3e
       0.26813632 0.39142743 0.3642368 0.257781
000040 49 47 8e 3e 4b ff 95 3e 45 a2 72 3e f4 66 99 3e
       0.2778876 0.29296336 0.23694713 0.2996136
000050 7e 8d 72 3e 48 41 9c 3e 28 69 ca 3e 66 a6 9d 3e
       0.23686787 0.30518556 0.39533353 0.30791014
000060 3a 73 97 3e 29 91 9a 3e 95 61 a9 3e db 1d ae 3e
       0.29580098 0.30188873 0.33082262 0.34007153
000070 ec dd 93 3e c6 31 69 3e f0 6b 61 3e 73 74 5c 3e
       0.2888025 0.22772893 0.22013831 0.21528797
000080 e8 2a a2 3e 80 4b 82 3e ff d3 68 3e ef 43 6d 3e
       0.3167336 0.25448227 0.2273712 0.23170446
000090 50 cb 71 3e a1 6e 78 3e e6 91 82 3e 22 79 ba 3e
       0.23612714 0.24260952 0.25501937 0.36420542
0000a0 ae 92 a8 3e ec f5 a2 3e 72 61 77 3e 51 74 aa 3e
       0.32924408 0.31828249 0.24158266 0.33291867
0000b0 72 e7 8c 3e cc 6e aa 3e 7e df 64 3e e6 69 5b 3e
       0.2752033 0.33287656 0.2235088 0.21427116
0000c0 58 9b 5b 3e 3c de 8d 3e e8 4c 81 3e b3 ec b0 3e
       0.21445978 0.27708614 0.25253987 0.34555587
0000d0 0b 69 62 3e a9 7d 78 3e 73 06 6a 3e 2e da 9e 3e
       0.22110383 0.24266686 0.22854023 0.31025833
0000e0 51 ef 93 3e f6 63 89 3e 73 db 80 3e 96 24 95 3e
       0.2889352 0.26834077 0.25167426 0.29129475
0000f0 af f9 c4 3e 3d 17 cd 3e 8a 9b 80 3e ec ec ac 3e
       0.38471743 0.40056792 0.25118667 0.33774507

cnn.5.bias f4 [64]
000000 d8 4d 37 bc 6b 08 81 bc 8f 67 6a 3d ef 67 24 bc
       -0.011187993 -0.015751084 0.057227667 -0.010034545
000010 70 f3 b4 3c 36 79 7c 3d 20 21 d9 3b 35 b6 8b 3d
       0.022088736 0.061639033 0.0066262633 0.068218626
000020 b5 f2 90 bb 0a 86 01 3c ac 68 37 3c 6b 54 f4 3a
       -0.004423464 0.007905493 0.011194389 0.0018640881
000030 82 e0 26 bc 0f 55 62 bc 8f bc 81 bc 9c c8 79 bb
       -0.010185363 -0.013814225 -0.015836982 -0.0038113957
000040 dd d3 bc 3b 0b 38 13 bc da 93 0d bb 13 61 68 3a
       0.0057625608 -0.00898553 -0.002160302 0.0008864563
000050 b4 46 0c ba a7 a2 b8 bb d7 22 53 bc 5f a7 2b bc
       -0.0005351112 -0.005634624 -0.012886724 -0.010476916
000060 5d a1 e7 bb 45 68 ea 3b 5e e9 0d bb 18 71 1b bc
       -0.0070687965 0.007153543 -0.002165399 -0.009487413
000070 9f f9 50 bc 51 1f de 3b ff 17 34 bb 9c 7e 8a 3b
       -0.012754827 0.0067786356 -0.0027480123 0.004226519
000080 bd 21 c1 3b ec cd ec 3b 54 89 00 bb d8 1f b5 3b
       0.0058939145 0.0072266962 -0.0019613104 0.0055274777
000090 ad 87 14 3c 55 14 8d bb da c9 08 3b 3f d1 46 3a
       0.009065551 -0.0043054023 0.0020872266 0.00075842807
0000a0 da a9 5a bc 13 a3 8f bc 24 87 cf bb cf 88 8c bc
       -0.01334616 -0.017533815 -0.0063332487 -0.01715508
0000b0 73 37 1b bc f5 b7 38 bc 8a 8c a2 3a 1a 51 af b9
       -0.009473669 -0.0112743275 0.0012401503 -0.00033439026
0000c0 3d 63 a3 ba 24 c8 ae 3b 45 8b 35 3a c0 9c d1 3b
       -0.0012465488 0.005333917 0.0006925355 0.00639686
0000d0 36 a3 20 3b b1 e4 c8 bb e8 42 01 bc c2 2e 8e bc
       0.0024511344 -0.0061307778 -0.007889487 -0.01735628
0000e0 f2 b1 af bb 00 c1 f6 39 7d 0a e1 ba a3 5b 2b bc
       -0.005361789 0.00047064573 -0.0017169263 -0.01045886
0000f0 db d5 34 bc 5c d2 87 bc 51 83 0c bb 4b dc 23 bc
       -0.011037315 -0.0165798 -0.0021440575 -0.010001252

cnn.5.running_mean f4 [64]
000000 a6 05 a3 3c 64 05 2b 3d 02 b3 11 3d e0 0f 26 3d
       0.019900154 0.041753188 0.035571106 0.040542483
000010 76 6b bd 3c 1d 16 1a 3d 22 4e d1 3c d3 b8 25 3d
       0.02312253 0.037618745 0.025549952 0.040459465
000020 6c 7e f0 3b 72 55 19 3c 33 24 cf 3c 01 b4 70 3b
       0.0073392894 0.009358751 0.025285816 0.0036728384
000030 7c bc 8a 3c 81 55 7f 3c 2a 7e 6f 3c 53 8a 9e 3b
       0.01693558 0.015584351 0.014617482 0.004838267
000040 5e f6 ae 3b 1e bd 76 3c 3d 79 12 3c 3a 33 97 3a
       0.005339428 0.0150597375 0.008940038 0.0011535652
000050 f0 3b fb 3b 2e 49 f1 3b 8c 32 a3 3c b5 f4 a6 3c
       0.007667057 0.00736346 0.019921564 0.020380357
000060 1d 40 62 3b 32 64 36 3c 4d 93 b0 3b 24 c6 1c 3c
       0.0034523078 0.011132287 0.0053886534 0.009568725
000070 0b bb 68 3c e1 8d 2c 3c be 73 e7 3b d8 df 81 3b
       0.014204751 0.010531873 0.007063358 0.003963452
000080 ab 2e a8 3c 08 56 48 3c 51 c6 4d 3b 40 e1 73 3b
       0.020530066 0.012227543 0.0031398723 0.0037213117
000090 60 b0 db 3b ea 58 79 3b fc e1 4c 3c 12 86 18 3c
       0.006704375 0.0038047382 0.012505051 0.009309309
0000a0 30 55 4a 3c 79 55 78 3c 20 e9 b5 3c 72 2d 83 3c
       0.012349412 0.015157097 0.02220589 0.016012881
0000b0 99 61 39 3c 84 e7 f6 3b 97 c5 e1 3b 1a 45 74 3b
       0.011314773 0.007534923 0.0068900096 0.0037272633
0000c0 c8 52 18 3c e9 6a 1e 3c 8d c7 23 3c 6f f4 97 3c
       0.00929708 0.009669044 0.009996307 0.018549172
0000d0 03 8f 0e 3c 31 37 17 3b 86 4f a0 3c e5 c0 b4 3c
       0.008701089 0.0023073668 0.01956917 0.022064636
0000e0 25 06 59 3c e1 f2 aa 3b dd f8 b3 3b 77 22 ef 3b
       0.013246094 0.0052169417 0.0054923133 0.0072978097
0000f0 8a 6c 31 3c a4 fc 83 3c 37 c3 7b 3c 32 41 9f 3c
       0.0108291 0.01611168 0.015366367 0.019440267

cnn.5.running_var f4 [64]
000000 9c d5 f0 3a 66 13 25 3c 63 8c 55 3c a2 83 26 3c
       0.0018374207 0.010075426 0.013033959 0.01016322
000010 7d 11 45 3b 1d 47 3e 3c 68 83 bb 3a 17 dc 5b 3c
       0.0030070238 0.011613634 0.001430613 0.013419173
000020 26 e7 0f 3a 89 7c f7 39 4a 4a 34 3b 9b 75 88 39
       0.0005489461 0.00047204297 0.00275101 0.00026027564
000030 31 0f 08 3b 5c 57 d1 3a ae 13 f1 3a db 30 f2 39
       0.0020761008 0.001597147 0.0018392706 0.00046194237
000040 cf f3 22 3a e5 09 c3 3a 92 dc 48 3a 72 de 30 39
       0.000621614 0.0014880268 0.0007662262 0.00016867535
000050 c1 38 2b 3a 97 e1 33 3a 9c 17 1b 3b 50 4c 16 3b
       0.00065315893 0.00068619236 0.0023665195 0.002293367
000060 53 b2 ac 39 c8 39 55 3a 4b fd ff 39 58 29 74 3a
       0.00032939258 0.0008133915 0.00048826108 0.0009314022
000070 63 3c c5 3a 62 47 6c 3a 06 2a e7 39 41 0a 8e 39
       0.0015047904 0.00090133224 0.00044091063 0.0002709199
000080 25 55 7e 3a 3e 83 88 3a 4b b0 ec 39 f6 7d a7 39
       0.00097020186 0.001041509 0.00045144776 0.0003194657
000090 cf 0d ad 39 cf 52 7f 39 56 76 50 3a da ea 38 3a
       0.0003300742 0.00024349544 0.0007952204 0.00070540386
0000a0 5f fd d4 3a 8a 14 f8 3a 68 2b 89 3a fd 5c e4 3a
       0.0016249827 0.001892702 0.0010465207 0.0017422732
0000b0 61 2e 84 3a c9 44 8a 3a e5 0a d8 39 e0 c8 82 39
       0.0010084623 0.0010549064 0.00041206848 0.00024945196
0000c0 c5 0c dc 39 55 55 57 3a 5a 91 6e 3a fb b1 c2 3a
       0.00041971184 0.00082143146 0.00091006386 0.0014854068
0000d0 ba 91 1c 3a bf d2 29 39 46 25 0e 3b 52 5c 31 3b
       0.00059726427 0.00016195605 0.0021689697 0.0027063084
0000e0 7f d2 95 3a f2 7d 09 3a c0 e1 e8 39 7f e9 3c 3a
       0.001143053 0.00052449026 0.00044418685 0.00072064245
0000f0 f3 a9 b9 3a 8a c4 17 3b d0 a4 c7 3a cf a2 05 3b
       0.0014165029 0.0023157918 0.0015231613 0.002039123

lstm_value.weight_ih_l0 f4 [512, 64]
000000 02 94 ed 3a b0 2c c5 38 fc 34 af bb c0 a7 3b 37
       0.0018125775 9.402016e-05 -0.0053468924 1.1185126e-05
000010 cb 1f 3a ba 9d ec 4e ba 2b f8 35 b9 97 c3 44 bb
       -0.00071000744 -0.00078935345 -0.00017353955 -0.0030023807
000020 28 c1 c0 38 dc 63 f6 b9 50 c4 0a b9 1b 89 77 39
       9.1912516e-05 -0.00046995177 -0.00013233838 0.00023606831
000030 ba 65 29 b9 6c cb 0f 3a 9a ec 81 39 d7 f8 5e 39
       -0.00016154992 0.00054853293 0.0002478108 0.0002126427
000040 ce 5b c0 37 ce f6 89 39 3a 6a 03 b9 0a 3b 04 b8
       2.2930933e-05 0.0002631456 -0.00012532706 -3.1526237e-05
000050 0c 36 d0 39 5c 15 10 39 89 73 3d 39 02 95 cc 39
       0.0003971312 0.00013740867 0.00018067485 0.00039020932
000060 ab 53 b0 39 22 5a 83 b9 25 85 4e 39 b0 2a 13 b8
       0.00033631673 -0.0002505342 0.00019695291 -3.5087287e-05
000070 d2 fb bc 39 fa ab 42 b8 3e 96 c9 38 db dc 7e b9
       0.00036045775 -4.641337e-05 9.612412e-05 -0.00024305603
000080 bf dd 83 b9 6c 3c 0b b9 ef 4c d7 b8 15 07 30 38
       -0.0002515148 -0.00013278582 -0.00010266329 4.1968266e-05
000090 4a 8c 93 b9 92 e0 be b6 5b 1f 20 39 b2 b3 40 b7
       -0.00028142548 -5.6885847e-06 0.0001527047 -1.148593e-05
0000a0 c8 1f b0 37 0e 0a 2e 39 72 75 b8 39 95 fa 0b 3a
       2.0995634e-05 0.00016597679 0.00035182718 0.0005339769
0000b0 98 12 04 37 7f 57 31 b9 98 0e b3 b6 48 5c 8e 39
       7.872142e-06 -0.0001691263 -5.3363146e-06 0.00027153105
0000c0 3b 6a 44 b8 dc 10 5c b8 8d 55 23 38 f4 f5 67 b6
       -4.6828976e-05 -5.246779e-05 3.8941904e-05 -3.4564846e-06
0000d0 1a a9 92 b8 40 5b 0a 39 3a a2 9e b8 10 64 84 37
       -6.99332e-05 0.00013194699 -7.564244e-05 1.5782221e-05
0000e0 9e b2 18 39 f7 62 74 b9 9d ab 82 39 1f b4 1b 3a
       0.0001456239 -0.0002330652 0.00024923394 0.0005939621
0000f0 a4 ec c7 39 19 1f f4 39 c6 ca c0 b9 ae dd e3 b8
       0.0003813255 0.00046562476 -0.00036772172 -0.000108654946
000100 03 68 8b 3a 5e 2d dd b8 6a fa b7 ba 95 d9 ca 37
       0.0010635856 -0.000105465515 -0.0014036421 2.4181596e-05
000110 f6 64 17 ba 41 13 86 b9 18 1c 97 b8 06 8a 8f ba
       -0.0005775237 -0.00025572817 -7.205474e-05 -0.0010951168
000120 48 6e 37 39 07 d8 f4 b9 ae 76 a3 b8 1a 4a d0 38
       0.00017493323 -0.0004670026 -7.7945515e-05 9.9320154e-05
000130 b4 0f 2b b9 0f 93 5f 39 90 07 cc 38 04 a0 a5 b7
       -0.0001631368 0.00021321721 9.728887e-05 -1.9744046e-05
000140 42 a0 6f b9 8c eb d8 38 e4 6a aa b9 80 23 83 b8
       -0.00022852517 0.00010343557 -0.00032504566 -6.253179e-05
000150 39 68 f7 39 4a e4 f0 b6 bc 4f 8a b8 b6 6a 78 b8
       0.00047189163 -7.1791337e-06 -6.5952045e-05 -5.922719e-05
000160 8d 75 3d 39 0d 12 0f b9 90 31 c6 b8 6c ee c6 b9
       0.00018068236 -0.00013644267 -9.4506075e-05 -0.0003794314
000170 60 e0 5f 39 b5 af 71 b8 1c 94 32 38 3c 9d 5d b9
       0.00021350523 -5.7622517e-05 4.2576445e-05 -0.00021134777
000180 38 11 8c b9 61 17 fd b8 36 b3 51 b8 65 05 70 38
       -0.0002671571 -0.00012068335 -4.9996386e-05 5.7225483e-05
000190 3a 40 d8 b9 08 64 67 36 9c bb 75 39 fe c7 a1 b8
       -0.00041246583 3.4479908e-06 0.0002343491 -7.71433e-05
0001a0 94 85 fa b9 d6 ee 58 37 d1 d3 95 39 9e 4d 82 39
       -0.0004778324 1.2930212e-05 0.0002857731 0.00024853362
0001b0 8a 15 09 b9 a8 40 67 ba d8 4b a1 b9 3d 22 8b 39
       -0.00013073362 -0.0008821585 -0.0003076482 0.00026537656
0001c0 0f 40 5e 38 89 4e 23 39 d4 59 8a b8 82 c0 49 39
       5.2988584e-05 0.00015574148 -6.5970846e-05 0.00019240569
0001d0 9a c1 08 ba 30 e6 bd 38 96 bf f9 b7 b8 2d 56 b8
       -0.0005216837 9.055098e-05 -2.9772327e-05 -5.1064155e-05
0001e0 36 92 c9 38 7a 65 85 b9 34 07 49 39 96 15 aa 39
       9.611661e-05 -0.00025443343 0.00019171537 0.0003244101
0001f0 1f 8e e2 39 3b 8c 3a 39 86 fd e5 b9 aa 13 16 b8
       0.00043211968 0.00017790582 -0.00043867173 -3.57811e-05
000200 fa 2b 24 3a bb bc 0e 38 1e c3 0a bb 81 dd ca 39
       0.00062626565 3.4031207e-05 -0.0021173428 0.00038693476
000210 9b bb f1 b9 3f 51 eb b9 3d b5 14 b9 d6 4a 01 bb
       -0.0004610688 -0.00044883226 -0.00014181896 -0.0019728444
000220 8b 2e 05 39 50 be 36 b8 55 70 46 b9 1e 10 d5 39
       0.00012701207 -4.3569424e-05 -0.00018924598 0.00040638534
000230 55 2e a2 b8 bb c5 07 3a e3 aa 5f 39 a7 3d ff 38
       -7.733392e-05 0.00051793054 0.00021330598 0.00012170831
000240 37 37 cc b8 e0 bc 94 39 c3 3e 56 b8 e8 84 46 39
       -9.7377626e-05 0.00028369483 -5.1080027e-05 0.00018932263
000250 e7 57 1c 39 54 fd 8e b8 bb f9 6d b8 a8 a5 0e 38
       0.00014910066 -6.818274e-05 -5.6737783e-05 3.4009718e-05
000260 9f 28 93 39 90 95 dd b8 4f f1 22 b8 7a 7c 5a b9
       0.0002806829 -0.000105659594 -3.8848546e-05 -0.00020836471
000270 36 d9 93 39 8e 58 5c 37 80 24 8d b7 e7 33 23 b8
       0.0002819986 1.313364e-05 -1.6825506e-05 -3.8910566e-05
000280 2a 57 68 b9 18 3c 23 b9 ba ff b5 37 6e 92 1a 39
       -0.00022157715 -0.00015567278 2.1695963e-05 0.00014741134
000290 77 aa 54 b9 d2 e4 03 38 81 ea 06 39 3e 24 6f 38
       -0.00020281399 3.144594e-05 0.00012866595 5.7015794e-05
0002a0 20 a8 22 b9 15 2d d0 39 88 2e b3 39 1e bf db 38
       -0.00015512155 0.0003970644 0.0003417621 0.00010478332
0002b0 cc 46 6a 37 de 3e 99 b9 ca 8d 7a b9 c4 15 0a 39
       1.3963971e-05 -0.00029229274 -0.00023894678 0.00013168814
0002c0 84 ed 83 38 8a c2 9e 37 2e 34 b8 38 ec 8b a3 39
       6.2908075e-05 1.8925657e-05 8.783523e-05 0.00031194033
0002d0 32 f7 b0 b9 c5 28 26 37 5d 31 0e 39 a6 08 6e 38
       -0.0003375351 9.903863e-06 0.00013560565 5.6751676e-05
0002e0 9d 78 11 3a 09 7e b3 b8 d4 81 5a 39 62 db b6 39
       0.0005549284 -8.558861e-05 0.00020838465 0.00034877198
0002f0 f1 70 bf 39 72 47 8e 39 de 56 38 b8 5e b6 ba 37
       0.00036514507 0.00027137581 -4.394992e-05 2.225785e-05
000300 5f 06 34 3b 00 19 73 b6 f6 01 d5 ba 91 94 01 ba
       0.0027469618 -3.6224374e-06 -0.0016251195 -0.00049430976
000310 58 c6 3b ba 21 b8 24 3a 62 ae 75 b9 97 66 16 ba
       -0.00071630394 0.0006283541 -0.00023429983 -0.0005737333
000320 22 39 44 39 70 46 ef b9 61 31 e5 b8 8c 1c e9 39
       0.000187133 -0.00045638112 -0.000109287685 0.00044462492
000330 d0 7f 8b b9 b2 31 f4 39 aa cd 97 39 98 5e 71 b6
       -0.00026607374 0.00046576333 0.00028954196 -3.596686e-06
000340 32 c9 8e b9 dc 3d 58 39 1a 43 2c b9 1a 74 22 b9
       -0.00027234253 0.0002062241 -0.00016428196 -0.00015492775
000350 d8 09 fb 39 ba 62 97 38 21 8d c7 38 68 4a bd b7
       0.00047881785 7.21863e-05 9.515347e-05 -2.2565204e-05
000360 c5 19 01 3a e4 20 9c b9 d0 f1 8d 36 f9 47 f7 b9
       0.00049247994 -0.00029779144 4.230278e-06 -0.00047165135
000370 b7 24 d8 39 4c 04 e3 b8 54 c2 6c 39 70 6a 41 b9
       0.00041226085 -0.00010825004 0.00022579107 -0.00018445565
000380 1b 91 0b ba dc c4 40 b9 c3 e6 8e b8 bc 1e ab 38
       -0.00053240516 -0.00018383883 -6.8140704e-05 8.15964e-05
000390 c8 e9 e0 b9 dc e0 73 b8 a7 ec 8b 39 8b e3 3f b8
       -0.0004289879 -5.814513e-05 0.00026688466 -4.5749865e-05
0003a0 af 8d c0 b9 65 e2 c9 38 c2 80 0d 3a 04 e7 19 3a
       -0.00036726656 9.626596e-05 0.00053979096 0.0005870911
0003b0 d0 3b 9f b8 39 19 22 ba 45 2d b7 b9 b5 dd de 39
       -7.592852e-05 -0.0006183568 -0.00034938208 0.00042508324
0003c0 ec 56 a7 b8 9a 0a c3 b7 f8 a0 fe b6 17 39 a1 39
       -7.979371e-05 -2.3250748e-05 -7.588529e-06 0.00030750848
0003d0 15 ec 23 ba d8 61 4a 39 5e a8 31 b9 60 9a 0e b8
       -0.00062531355 0.00019300671 -0.00016942757 -3.399921e-05
0003e0 6c 08 ab 38 c9 72 c4 b9 2c 83 7d 39 da f4 02 3a
       8.155484e-05 -0.00037469555 0.00024176826 0.0004995592
0003f0 1e 4a 28 3a d7 63 cf 39 a9 c2 1f ba a2 19 ed b8
       0.0006419736 0.00039556503 -0.0006094375 -0.00011305815
